pytorch/cifar_net.pth (torch_old, 249602 bytes, 10 tensors)

conv1.weight f4 [6, 3, 5, 5]
0	0xbd2b6b0d	-0.04185014
1	0xbe71e31e	-0.23621795
2	0x3d1f1f38	0.038848132
3	0x3c9e488c	0.019321702
4	0xbe88914e	-0.2667336
5	0xbdca6aef	-0.09883677
6	0xbe8df512	-0.27726036
7	0xbde94691	-0.113904126
8	0xbeeed957	-0.46650192
9	0xbbacab6c	-0.0052694585
10	0x3e2e6117	0.17029224
11	0xbd48420a	-0.048891105
12	0x3df22841	0.11824084
13	0xbd862a16	-0.06550996
14	0x3dd3ba22	0.103382364
15	0xbdb25995	-0.08708493
16	0xbe361865	-0.17782743
17	0x3e3083c6	0.17237768
18	0x3ea944a6	0.33060187
19	0xbe19a407	-0.15003978
20	0xbcccf35a	-0.025018383
21	0xbeb994f4	-0.36246455
22	0xbc5498c5	-0.012975876
23	0xbe200258	-0.15625894
24	0xbe51ce01	-0.2048874
25	0xbcd625bc	-0.02614104
26	0xbd454dce	-0.048169903
27	0x3e811f24	0.2521907
28	0x3e8a55ba	0.2701853
29	0xbd40f62d	-0.04710977
30	0x3e6c5af0	0.23081565
31	0x3d203614	0.039114073
32	0xbb9affd3	-0.0047302037
33	0xbe5debbd	-0.21671958
34	0x3e2d5194	0.16925651
35	0x3e5a4dd5	0.21318753
36	0x3e9e265d	0.30888644
37	0x3eb8aac7	0.36067793
38	0x3e3e3a85	0.18577011
39	0x3f038ce2	0.51386845
40	0x3e8402d9	0.25783423
41	0xbd10c0e5	-0.03534021
42	0x3f11efca	0.57006514
43	0x3ed041d2	0.40675217
44	0xbc7cb22a	-0.015423337
45	0x3e3caf0b	0.18426149
46	0xbd7e9acf	-0.062159356
47	0x3e2271d2	0.15863732
48	0x3d578cd6	0.052624546
49	0xbe4c4f8b	-0.19952218
50	0xbe0c2671	-0.13686539
51	0xbe4fda08	-0.20298016
52	0x3ce944ae	0.028475132
53	0x3dbfb33b	0.093603574
54	0xbe0c95c7	-0.1372901
55	0x3d0e93cf	0.03480893
56	0xbe1c4fbf	-0.15264796
57	0xbd4dd0b8	-0.050247878
58	0xbec91038	-0.39270186
59	0xbd4878c2	-0.04894329
60	0x3e4283d1	0.18995596
61	0xbc9c34b9	-0.019068109
62	0x3d8fdbb6	0.070243284
63	0xbe406177	-0.1878718
64	0x3e8f51f4	0.27992213
65	0xbd49afd6	-0.049239956
66	0xbdcbd12d	-0.099520065
67	0x3da3c07d	0.079956986
68	0x3e680004	0.22656256
69	0xbd9653e7	-0.07340222
70	0xbe1b33b4	-0.15156442
71	0xbeaaff50	-0.33397913
72	0xbe6a7c43	-0.22898965
73	0xbdbdeaee	-0.09273325
74	0xbe61eb86	-0.22062501
75	0xbdb3d4ed	-0.08780847
76	0xbd81b790	-0.0633384
77	0x3e2ae73d	0.16689773
78	0x3e768be5	0.24076803
79	0x3dbf67ee	0.09345995
80	0xbd1e4506	-0.038640045
81	0xbd6bae92	-0.05753953
82	0xbdb09f72	-0.08624162
83	0x3c46f1ba	0.012142593
84	0x3e36592b	0.17807452
85	0x3e765e69	0.24059452
86	0x3c0b4113	0.008499402
87	0xbddecd40	-0.10878992
88	0xbe02d00b	-0.12774675
89	0xbd47b6ab	-0.04875819
90	0x3e7a60b5	0.24450953
91	0x3d54ba70	0.051935613
92	0xbd1041c8	-0.035218984
93	0xbe85ef47	-0.26159117
94	0xbe6513a1	-0.22370769
95	0x3df1efb9	0.118133016
96	0x3e92b28b	0.28651842
97	0x3e859ca1	0.2609606
98	0xbde112cb	-0.109899126
99	0xbe7b6721	-0.2455106
100	0xbe611031	-0.21978833
101	0xbdfe66a6	-0.124219224
102	0xbca0210c	-0.019547008
103	0x3cbab18c	0.02278974
104	0x3dc78281	0.097416885
105	0xbd66336d	-0.056201387
106	0xbe9955ec	-0.29948366
107	0xbe0191c3	-0.1265326
108	0x3d80b7b0	0.062850356
109	0x3ddc7fe6	0.10766582
110	0x3d364d5f	0.04450738
111	0xbe07ebf1	-0.13273598
112	0xbea83d6e	-0.32859367
113	0xbe8d711d	-0.2762536
114	0x3cb0e84f	0.021595148
115	0x3df9b3fd	0.12192533
116	0x3dd47d36	0.103754446
117	0xbe0de218	-0.13855779
118	0xbea1019b	-0.31446537
119	0xbea7809c	-0.3271531
120	0x3e9eb8de	0.31000417
121	0x3e6526f6	0.22378144
122	0x3e7b74e0	0.24556303
123	0x3de60295	0.11230961
124	0xbe729f41	-0.23693563
125	0xbe59b2c1	-0.21259595
126	0xbe2435d8	-0.16036165
127	0x3d74f3fd	0.059802998
128	0x3e66c49f	0.22535942
129	0x3e6317d1	0.22177054
130	0x3d4784ee	0.048710756
131	0xbe85e218	-0.26149058
132	0xbe83eea9	-0.2576802
133	0x3b634601	0.0034679177
134	0x3dc828f1	0.09773434
135	0x3e87f5ba	0.26554662
136	0xbdd82edc	-0.10555813
137	0xbe5c383c	-0.21505827
138	0xbeb860f8	-0.3601148
139	0x3c6fe882	0.0146428365
140	0x3ea15cef	0.31516215
141	0x3e761260	0.24030447
142	0xbd392571	-0.045201723
143	0xbe864380	-0.26223373
144	0xbe3bf301	-0.18354417
145	0x3e9d4f1e	0.30724424
146	0x3ed163a2	0.40896326
147	0x3e3f51af	0.18683504
148	0x3e2a546d	0.16633768
149	0xbe753858	-0.23947275
150	0xbcd6ac93	-0.026205337
151	0x3dd5e353	0.10443749
152	0x3dd96753	0.10615411
153	0xbe15e629	-0.1463858
154	0xbe6698e9	-0.22519268
155	0x3e546925	0.20743234
156	0x3e3c8aa0	0.18412256
157	0xbbb89204	-0.005632641
158	0xbe587eea	-0.21142164
159	0xbe8301ad	-0.25587216
160	0x3df587c2	0.119887844
161	0xbe0265dc	-0.12734169
162	0xbe988c69	-0.29794624
163	0xbe123a23	-0.1427999
164	0xbe08ce54	-0.13359958
165	0xbd0b289e	-0.033974282
166	0xbec47a0d	-0.38374367
167	0xbe9cc769	-0.30620888
168	0xbe17550e	-0.1477854
169	0x3dbf8bd6	0.093528435
170	0xbe86c2fb	-0.26320633
171	0xbe33cfd3	-0.17559747
172	0xbc189089	-0.009311804
173	0x3dac571e	0.08415054
174	0x3e4fbfa5	0.2028795
175	0xbd8c0a62	-0.06837918
176	0x3d30725b	0.043077808
177	0x3bb396e2	0.005480633
178	0xbdcb32d0	-0.09921801
179	0xbe4cb620	-0.1999135
180	0x3e65935d	0.22419496
181	0x3d3dcac8	0.046335965
182	0xbe1b1f40	-0.1514864
183	0xbdfab970	-0.12242401
184	0xbe1b4aec	-0.15165299
185	0x3d771474	0.06032224
186	0x3babeb33	0.005246544
187	0xbe18f4ac	-0.14937085
188	0xbe57a419	-0.21058692
189	0x3d8b544c	0.06803188
190	0xbd82cfbf	-0.06387281
191	0xbe26283d	-0.16226287
192	0xbe3910f3	-0.18072872
193	0xbdb77f94	-0.089598805
194	0x3e7a1428	0.24421751
195	0xbdc1cc09	-0.09462745
196	0xbd87bcf7	-0.06627839
197	0x3d95213e	0.07281731
198	0x3e89644e	0.2683434
199	0x3e9c263c	0.3049792
200	0xbd691a22	-0.056909688
201	0x3e19f91b	0.15036432
202	0x3e219b41	0.15781881
203	0xbd9bf128	-0.07614356
204	0xbde9b34e	-0.11411153
205	0x3ccf21c3	0.025284654
206	0x3d0eb1c0	0.034837484
207	0x3c231fb2	0.009956287
208	0xbe0b88a3	-0.13626342
209	0x3d96bb56	0.0735995
210	0x3e194fd7	0.14971863
211	0xbb63ea87	-0.003477724
212	0xbd2f920a	-0.042863883
213	0xbd9631ee	-0.07333742
214	0x3e1b7481	0.15181161
215	0xbe49f718	-0.19723165
216	0xbea2b0e0	-0.3177557
217	0xbd0cabf9	-0.034343693
218	0x3df6a6db	0.12043544
219	0x3e126056	0.14294562
220	0xbe849a84	-0.25899136
221	0xbb28e869	-0.0025773293
222	0x3e0bea06	0.13663492
223	0x3ed20725	0.41021076
224	0x3ec71b5f	0.3888807
225	0x3e547f73	0.20751743
226	0x3f048870	0.5177069
227	0x3f1fed25	0.6247123
228	0x3f10a17d	0.5649641
229	0x3ed0ef8a	0.40807754
230	0x3df07916	0.11741845
231	0x3e1d70f5	0.15375121
232	0x3ead8b84	0.33895504
233	0x3e4fbc50	0.2028668
234	0x3d9a0013	0.075195454
235	0xbc026a95	-0.007959981
236	0xbd1c0e93	-0.038099837
237	0x3e25cff8	0.16192615
238	0x3e614c23	0.220017
239	0x3d54eaf9	0.0519819
240	0xbe975065	-0.29553524
241	0xbe14dee6	-0.14538154
242	0xbde018df	-0.10942244
243	0x3d223673	0.039602708
244	0x3d43535b	0.047686916
245	0xbea0fa55	-0.31440988
246	0xbeea68e0	-0.45783138
247	0xbefafcb2	-0.49020916
248	0xbf0f8550	-0.56062794
249	0xbf084a5e	-0.53238475
250	0xbd53abf0	-0.051677644
251	0xbd1bc810	-0.03803259
252	0x3b9fc742	0.0048760483
253	0xbab3ad59	-0.0013708278
254	0x3e0ee83b	0.13955776
255	0xbeada0dd	-0.3391179

conv1.bias f4 [6]
0	0xbd9d97b3	-0.0769495
1	0xbefdb932	-0.49555355
2	0xbeb6c894	-0.35699904
3	0xbea3db48	-0.32003236
4	0x3e56a9b6	0.20963177
5	0xbe42581c	-0.18978924

conv2.weight f4 [16, 6, 5, 5]
0	0x3cddf3f8	0.027093872
1	0x3ce62002	0.028091434
2	0xbb4c5fe8	-0.0031185094
3	0xbd82d262	-0.063877836
4	0x3d33b4fa	0.043873765
5	0x3cb02438	0.021501645
6	0xbd87f524	-0.06638554
7	0x3bd953f1	0.006632321
8	0xbd6822ec	-0.05667393
9	0xbd0b19f6	-0.033960305
10	0x3d4ec2f8	0.050478905
11	0xbd145269	-0.036211405
12	0xbcee1729	-0.029063778
13	0x3d518d0e	0.05115991
14	0xbcb8a993	-0.022541797
15	0xbc4565f4	-0.012048233
16	0x3c9da45b	0.01924341
17	0x3d356e38	0.044294566
18	0xbdfea25c	-0.12433311
19	0x3cfd1c77	0.030897362
20	0xbe44b216	-0.1920856
21	0xba8f0099	-0.0010910212
22	0xbcdefe3e	-0.027220841
23	0xbd0020ac	-0.03128116
24	0xbd142a98	-0.036173433
25	0x3d08527c	0.03328179
26	0x3d052683	0.03250743
27	0xbc80bb69	-0.015714364
28	0xbe12eeeb	-0.14348952
29	0x3c9fd3c3	0.019510156
30	0x3dd0ffcd	0.1020504
31	0x3d1d7280	0.038439274
32	0xbd7dc865	-0.06195869
33	0x3cf8dd37	0.030378921
34	0x3da30436	0.079597875
35	0x3e505c3b	0.20347683
36	0x3e4eaa22	0.20182088
37	0xbc121026	-0.008914983
38	0x3d875175	0.066073336
39	0xbd1d3136	-0.03837701
40	0x3e4f4ce2	0.20244172
41	0x3e2184d9	0.15773334
42	0x3e26b5f6	0.1628035
43	0x3daab47d	0.08335207
44	0x3dfea375	0.12433521
45	0x3e54db93	0.20786886
46	0x3e5bf487	0.21479999
47	0x3e7b0e3a	0.24517146
48	0x3c92ae92	0.017905507
49	0x3de966f2	0.113965884
50	0xbe0063c6	-0.1253806
51	0xbdfcc50c	-0.12342271
52	0xba38dd30	-0.00070520025
53	0xbb6b4fdd	-0.0035905757
54	0x3e22d62d	0.15902014
55	0xbda233dd	-0.079200484
56	0x3cf368b4	0.029713012
57	0xbd2fdaa6	-0.04293313
58	0xbcc37bb2	-0.023862693
59	0x3e365f02	0.1780968
60	0xbdf4c9de	-0.119525656
61	0xbdc8831a	-0.09790631
62	0xbcc8847e	-0.02447724
63	0x3e03965d	0.12850328
64	0x3e5e86f6	0.21731171
65	0xbdbb8f44	-0.09158185
66	0x3cf892b1	0.030343385
67	0x3e296450	0.16542172
68	0x3e85378f	0.2601895
69	0x3e64b274	0.223337
70	0x3cc8a4fe	0.024492737
71	0x3ded4413	0.1158525
72	0xbd23b6e8	-0.039969355
73	0xbd258f95	-0.040420134
74	0xbe17ae56	-0.14812598
75	0x3e113488	0.14180195
76	0xbd893631	-0.06699789
77	0xbe0ca5cd	-0.13735123
78	0xbc2568ca	-0.010095784
79	0x3d04a469	0.032383356
80	0x3ccf7dbc	0.02532851
81	0xbd9783c1	-0.07398177
82	0xbdb3d8a3	-0.087815545
83	0xbd6946d4	-0.056952313
84	0x3d83e054	0.064392716
85	0xbdb6f300	-0.08933067
86	0x3d113688	0.035452396
87	0x3cf4c943	0.029881125
88	0xbbcda699	-0.0062759635
89	0xbdb821cc	-0.08990821
90	0x3c1887b3	0.009309697
91	0x3e118be5	0.14213522
92	0x3e0e8ae5	0.13920172
93	0xbdea6c2c	-0.114464134
94	0xbe6e744a	-0.23286548
95	0x3d8945dd	0.067027785
96	0xb99c73ed	-0.0002984101
97	0x3d4d22ea	0.050082125
98	0xbd923ab1	-0.07140101
99	0xbd7f4bfa	-0.062328316
100	0x3cd09dd5	0.025465885
101	0x3d098370	0.033572614
102	0x3df1568b	0.11784085
103	0x3cd51f8a	0.026016016
104	0x3d1eaa3c	0.038736567
105	0x3c295e4e	0.010337425
106	0x3d7c8f16	0.061659895
107	0x3bc6d618	0.0060680024
108	0xbd13b975	-0.036065537
109	0xbd667e2e	-0.056272678
110	0xbdf54a27	-0.11977034
111	0x3d6e9a54	0.058252648
112	0x3b1ca80c	0.0023903875
113	0x3ce4b951	0.027920397
114	0xbd8291ac	-0.06375441
115	0x3d059bbf	0.032619234
116	0x3d8c8437	0.068611555
117	0x3da8bd82	0.08239271
118	0xbe1a553d	-0.15071578
119	0xbe182bb3	-0.1486042
120	0xbe812def	-0.25230357
121	0xbdfc34aa	-0.123147324
122	0x3c13e3fd	0.009026525
123	0x3cdfb290	0.027306825
124	0xbbeb06ea	-0.007172455
125	0x3e766410	0.24061608
126	0xbda1eb60	-0.07906222
127	0x3e2dd25d	0.16974778
128	0xbdf6aa91	-0.12044252
129	0x3c5b73f7	0.013394347
130	0x3da71a1b	0.08159276
131	0x3d9ca0f1	0.07647885
132	0x3d3166eb	0.04331104
133	0xbd79d684	-0.060995594
134	0x3e3c7aa0	0.18406153
135	0xbdc05f63	-0.093931936
136	0x3df9864a	0.12183817
137	0x3bddee97	0.006772827
138	0x3e676152	0.22595719
139	0x3d5312ee	0.051531725
140	0xbd814802	-0.063125625
141	0xbd0d7e6f	-0.034544405
142	0x3d63300a	0.055465735
143	0x3d80b9d1	0.06285442
144	0xbd41f37c	-0.047351345
145	0xbe48a51b	-0.19594233
146	0xbec11c5c	-0.3771695
147	0xbebde37a	-0.37087613
148	0xbecf4662	-0.40483385
149	0xbea4b38e	-0.3216824
150	0xbd6f9a0a	-0.058496512
151	0xbd64b735	-0.055838782
152	0x3c9bed63	0.019034093
153	0xbc929d29	-0.017897205
154	0xbd72b262	-0.05925215
155	0x3ad3740b	0.0016132606
156	0xbad66b65	-0.001635891
157	0x3c79bf89	0.015243419
158	0xbdfbed52	-0.12301125
159	0xbdf1198f	-0.11772453
160	0xbb29b538	-0.0025895368
161	0x3d201a47	0.03908756
162	0xbdad8eda	-0.084745124
163	0x3b52770f	0.0032114421
164	0xbd53b7d8	-0.051689
165	0x3cf9a1fe	0.030472752
166	0x3d81a61b	0.0633051
167	0x3d8ff20b	0.07028588
168	0xbd18f9a9	-0.03734747
169	0x3d1d85a2	0.03845752
170	0x3dd2bd04	0.10289958
171	0x3d2eca91	0.04267365
172	0x3e0fc070	0.14038253
173	0x3d5ee035	0.05441304
174	0x3cc032ea	0.023461778
175	0x3dfd5bca	0.12371023
176	0x3c776a08	0.015100963
177	0x3d427228	0.04747215
178	0x3c77a556	0.015115103
179	0xbe1abd5b	-0.15111296
180	0xbb80e660	-0.003933713
181	0xbd515b78	-0.051112622
182	0xbc8815da	-0.016611982
183	0xbc3ab8f5	-0.011396636
184	0xbdf85f57	-0.1212756
185	0x3d208fa9	0.039199505
186	0x3d070d2a	0.03297154
187	0xbc9da7fe	-0.019245144
188	0xbd8f34aa	-0.06992467
189	0xbcf67d1d	-0.030088956
190	0xbbb2a482	-0.0054517398
191	0xbc77ceca	-0.015124986
192	0xbb5e0fd5	-0.0033883948
193	0xbd6252a2	-0.055254586
194	0xbdff9fd1	-0.124816544
195	0x3da238e8	0.0792101
196	0x3dc2e81e	0.09516929
197	0xbd5bf304	-0.053698555
198	0xbd3052e3	-0.043047797
199	0xbdd8127c	-0.105504006
200	0xbdc471de	-0.09592031
201	0xbcc71af3	-0.024304843
202	0xbdcb2a02	-0.09920122
203	0xbd037327	-0.03209224
204	0xbdb559f5	-0.088550486
205	0xbbf93661	-0.0076053594
206	0xbd3aced3	-0.0456074
207	0x3d5e65d0	0.054296315
208	0x3d7bf1d0	0.061509907
209	0x3d1b610d	0.03793435
210	0x3c396495	0.0113154845
211	0x3daf8be1	0.08571602
212	0x3ce4fe14	0.027953185
213	0x3dbaa02a	0.0911258
214	0x3ddafe7e	0.10693072
215	0x3c6b7be4	0.0143728
216	0x3d1b2240	0.03787446
217	0x3b7e2200	0.003877759
218	0x3d79365e	0.060842864
219	0x3df3a409	0.118965216
220	0x3d8fcaca	0.07021101
221	0xbca9312d	-0.020653332
222	0xbb6f129c	-0.0036479598
223	0x3d96fd7f	0.07372569
224	0x3e0b5845	0.13607891
225	0xbe0db1e1	-0.13837387
226	0xbd81fc72	-0.06346978
227	0x3cf9091f	0.030399857
228	0xbdafe47f	-0.08588504
229	0xbe028383	-0.1274548
230	0x3d90455f	0.070444815
231	0x3d3d4437	0.046207633
232	0x3d6108ef	0.05494016
233	0xbce3afbc	-0.027793758
234	0xbd055e74	-0.03256078
235	0x3dc79fab	0.09747251
236	0x3cd53020	0.026023924
237	0xbdb8debe	-0.0902686
238	0xbda5fc0e	-0.08104716
239	0xbdbc0367	-0.091803364
240	0x3e2edd6d	0.17076655
241	0xbd68ab46	-0.056803964
242	0xbdef24b5	-0.11676923
243	0xbe1c560d	-0.15267201
244	0xbdd292b1	-0.102818854
245	0xbcd39845	-0.025829444
246	0xbbc539bc	-0.0060188454
247	0xbe42a157	-0.19006859
248	0xbe539be2	-0.20664933
249	0xbe1eae8f	-0.15496276
250	0x3e179ea4	0.1480661
251	0x3cc7920d	0.024361635
252	0xbd947d7b	-0.07250496
253	0xbd092af2	-0.03348822
254	0x3d896c5e	0.067101225
255	0x3d826943	0.06367733

conv2.bias f4 [16]
0	0xbec7a7cc	-0.38995206
1	0x3f2b1397	0.66826767
2	0x3e3c9f8a	0.18420234
3	0x3f3b3751	0.7313128
4	0x3e4c64e9	0.19960369
5	0xbe0e537e	-0.13899037
6	0x3d9d1866	0.07670669
7	0xbf1472b7	-0.5798754
8	0x3e8384e2	0.2568732
9	0xbf40753d	-0.7517889
10	0x3e8dfb5d	0.27730837
11	0x3f38042a	0.71881354
12	0x3e2d0d3b	0.16899578
13	0x3f20bc56	0.6278738
14	0xbf001ff3	-0.5004875
15	0x3e93a3e2	0.2883597

fc1.weight f4 [120, 400]
0	0xbc712c21	-0.014719994
1	0x3da3cf80	0.07998562
2	0x3c24151c	0.0100147985
3	0x3d6649c0	0.056222677
4	0x3c988d89	0.018622177
5	0xbd2df218	-0.042467207
6	0xbc4ea17a	-0.012611741
7	0x3bd3ddb8	0.00646564
8	0x3d21b22b	0.039476555
9	0x3d542ce8	0.05180064
10	0xbc837365	-0.016046235
11	0xbc9ed5e0	-0.019389093
12	0x3d0186e3	0.03162278
13	0xbd05d6b1	-0.03267545
14	0x3d3838c7	0.044976022
15	0xbd01fb38	-0.03173372
16	0x3cb79669	0.022410588
17	0xbd6bde91	-0.057585303
18	0xbcef1c83	-0.0291884
19	0xbb23b42b	-0.0024979215
20	0xbd3e0cb3	-0.04639883
21	0xbca33c21	-0.019926133
22	0xbc4a3af9	-0.012343162
23	0x3cbd8e96	0.02313928
24	0xbd96de10	-0.07366574
25	0x3d82ae80	0.063809395
26	0x3b030e65	0.0019997593
27	0x3a91f78d	0.0011136398
28	0xbb2c508a	-0.0026293122
29	0x3d8fcf2f	0.07021939
30	0x3c9ab989	0.018887298
31	0x3c756e8e	0.014979972
32	0x3d7ba133	0.06143303
33	0xbc859953	-0.016308462
34	0x3ceb69aa	0.028736908
35	0xbd0ca158	-0.034333557
36	0xbcaec729	-0.021335201
37	0xbb0785fa	-0.0020679221
38	0xbc2d3160	-0.010570854
39	0x3d05a690	0.03262955
40	0x3c8e0027	0.017334057
41	0xbcb724e9	-0.022356467
42	0xbc455537	-0.012044243
43	0xbda51f8f	-0.0806266
44	0xbaa76c0e	-0.0012773292
45	0x3b1924d6	0.0023367903
46	0x3d0806b6	0.033209525
47	0xbd155293	-0.036455702
48	0xbd94c0e2	-0.07263352
49	0x3d1f2fcd	0.038863946
50	0xbdf420fc	-0.11920354
51	0xbdbeae84	-0.0931063
52	0xbdbf34a1	-0.0933621
53	0xbda78f4b	-0.08181628
54	0xbdd715e6	-0.10502224
55	0xbde7af55	-0.11312739
56	0xbd9ae705	-0.07563595
57	0xbd1b3eaf	-0.037901577
58	0xbcdc11f5	-0.026864031
59	0xbd474f62	-0.04865969
60	0x3c5e06d1	0.01355143
61	0xbd0ba52f	-0.03409308
62	0xbcfd41f1	-0.030915232
63	0x3d98370b	0.074323736
64	0x3d5ffcb5	0.05468436
65	0x3d769ac7	0.0602062
66	0xbcb2dc99	-0.021833705
67	0x3c7c7d38	0.015410714
68	0xbd069751	-0.03285915
69	0x3b4b8ae1	0.003105812
70	0xbd7386bc	-0.059454665
71	0xbca4d8bd	-0.02012288
72	0xbd045de3	-0.0323161
73	0xbd2bd2fe	-0.041949265
74	0xbd46ce10	-0.04853636
75	0xbcfc0020	-0.030761778
76	0xbd2d5a25	-0.042322297
77	0xbdb49a7f	-0.0881853
78	0xbd9ab48d	-0.075539686
79	0xbd797fa7	-0.060912754
80	0xbce2e811	-0.027698549
81	0xbb31d417	-0.0027134472
82	0x3b706ff9	0.0036687835
83	0xbda3a306	-0.07990079
84	0xbd753f02	-0.059874542
85	0xbd66b585	-0.056325454
86	0xbdae23cc	-0.085029215
87	0xbc2d4b00	-0.010576963
88	0x3c94ef45	0.018180499
89	0xbd61eceb	-0.055157583
90	0xbd39ad27	-0.045331147
91	0x3c2ffeff	0.010741948
92	0xbc00b62c	-0.007855933
93	0xbd3dc83a	-0.04633353
94	0xbd36e85f	-0.0446552
95	0x3ca91001	0.020637514
96	0xbce44b75	-0.027868012
97	0xbd268eb5	-0.04066344
98	0xbc365cb1	-0.011130498
99	0x3cfbda71	0.03074381
100	0xbd10c3a1	-0.035342816
101	0x3d1a0bd2	0.03760893
102	0xbc405cda	-0.011740888
103	0xbd15ed82	-0.03660346
104	0xbdcae6a3	-0.09907272
105	0xbd6d9a17	-0.05800828
106	0xbc37325a	-0.011181438
107	0xbd45d37e	-0.048297398
108	0xbcc3ac48	-0.023885861
109	0xbd0457f0	-0.032310426
110	0xbcc1c733	-0.023654556
111	0x3ce6a6dc	0.028155737
112	0x3cd279d4	0.025692858
113	0xbd432ccf	-0.047650155
114	0x3c16544c	0.009175371
115	0x3d55932a	0.0521423
116	0x3d833ed8	0.06408471
117	0x3d3348d3	0.043770622
118	0x3d7ef6de	0.06224715
119	0x3b076164	0.0020657415
120	0xbd265825	-0.040611405
121	0xbce1ec3b	-0.027578464
122	0xbc315716	-0.010823986
123	0x3c1a1ab0	0.009405777
124	0x3bb5e966	0.005551505
125	0xbcb6fbd3	-0.022336876
126	0xbd9378cc	-0.072007746
127	0xbc59efdd	-0.013301817
128	0xbd468dae	-0.04847496
129	0x3c17344e	0.009228779
130	0xbd4eeedc	-0.050520763
131	0xbdb0f1ed	-0.08639894
132	0xbd7500c1	-0.059815172
133	0xbd315693	-0.043295454
134	0x3cd3519c	0.02579575
135	0xbc2b10bc	-0.0104410015
136	0xbd9246bc	-0.07142398
137	0xbc8ecd93	-0.01743201
138	0xbd336386	-0.043796085
139	0xbd1d1a05	-0.038354892
140	0xbc13ba7c	-0.009016629
141	0xbcd8fc16	-0.026487391
142	0x3d07718c	0.03306727
143	0xbcb321e5	-0.021866748
144	0xbcbe3200	-0.023217201
145	0x3db6b81e	0.08921836
146	0x3d7b11bb	0.061296206
147	0x3c95e614	0.018298186
148	0x3dd09d29	0.10186226
149	0x3d85bc0d	0.065300085
150	0xbd5e81fc	-0.05432318
151	0xbd05fd1e	-0.032712094
152	0xbe0256a8	-0.12728369
153	0xbd8a3b3c	-0.06749579
154	0xbd5766e3	-0.052588355
155	0xbc865d6d	-0.01640197
156	0x3bf39b74	0.007434303
157	0xbc30b0d7	-0.010784349
158	0xbc816fc4	-0.015800364
159	0xbd4f9f3b	-0.050688963
160	0x3ce6c32b	0.028169235
161	0x3c8337f3	0.01601789
162	0x3d30247d	0.043003548
163	0x3c0fcfbe	0.008777557
164	0x3c1622b7	0.00916355
165	0x3d4c0eef	0.04981893
166	0x3c8e3325	0.017358372
167	0xbae3c015	-0.001737597
168	0x3d18001a	0.03710947
169	0x3da7606a	0.081726864
170	0x3d0a5992	0.033776827
171	0xbce48b1d	-0.027898366
172	0xbc2b09a0	-0.0104393065
173	0x3c368172	0.011139261
174	0xbce8d3ea	-0.028421361
175	0xbd2d2591	-0.042272154
176	0xbb809447	-0.003923926
177	0x3d5ca411	0.053867403
178	0xbd4cab7a	-0.04996822
179	0xbdb1a102	-0.08673288
180	0xbca8ecb9	-0.02062069
181	0xbd47ef72	-0.048812337
182	0xbd9b6793	-0.075881146
183	0xbcdf2d75	-0.027243355
184	0x3bbcf534	0.005766535
185	0x3d35e656	0.04440912
186	0xbbd7b642	-0.006583006
187	0xbcc39392	-0.023874078
188	0x3a92cf09	0.0011200617
189	0x3d05ecc0	0.032696486
190	0x3da47a50	0.08031142
191	0x3dd751ed	0.10513673
192	0x3dc64164	0.09680441
193	0x3d4eff22	0.050536282
194	0x3b747bb4	0.0037305178
195	0x3d09b925	0.033623833
196	0x3c4d30df	0.012523859
197	0x3a70a63c	0.0009180044
198	0x3c037dc3	0.008025589
199	0x3d5c0e70	0.053724706
200	0xbc17c8c2	-0.009264173
201	0xbc65980d	-0.0140133025
202	0x3d3d53b2	0.046222396
203	0x3d2353e9	0.039874945
204	0xbd04b0a6	-0.032395028
205	0x3c758432	0.014985131
206	0xbd2310b5	-0.039810855
207	0x3c885450	0.016641766
208	0x3be6fb4f	0.0070490013
209	0xb8c1ce97	-9.2414375e-05
210	0x3d80218d	0.06256399
211	0x3d11bd4c	0.03558092
212	0x3d5f871e	0.054572217
213	0x3c9163d9	0.017747806
214	0x3c80a6f6	0.015704613
215	0x3c283b29	0.010268011
216	0x3d8a8141	0.067629345
217	0x3c1d8d29	0.009616175
218	0x3cfe634a	0.031053204
219	0x3d84f0be	0.064912304
220	0x3d7ef146	0.062241815
221	0x3d5bea37	0.05369016
222	0x3cc9f2a7	0.024651838
223	0x3d0c1d43	0.034207594
224	0x3dbcb4ef	0.09214198
225	0xbdc3d6c9	-0.095624514
226	0xbda71f65	-0.08160285
227	0xbe0439d6	-0.12912688
228	0xbe0320b1	-0.1280544
229	0xbdc1eb5c	-0.09468719
230	0xbd6e316b	-0.058152597
231	0xbd138a66	-0.03602066
232	0xbd0dd7ef	-0.03462976
233	0xbd9c5782	-0.07633878
234	0xbd766981	-0.06015921
235	0xbc95e3d8	-0.01829712
236	0xbcbc3154	-0.02297274
237	0xbd0d71e8	-0.034532458
238	0x3cbab922	0.022793356
239	0xbbd9ab0a	-0.006642704
240	0x3d087385	0.033313293
241	0x3d1ea067	0.03872719
242	0x3d54e014	0.05197151
243	0x3d165775	0.0367045
244	0xb9828ac4	-0.0002489892
245	0x3c18633c	0.009301003
246	0x3d6dac28	0.05802551
247	0x3d9550d6	0.07290809
248	0xbd22985d	-0.039696086
249	0x3cb669bf	0.02226722
250	0xbd1ea35c	-0.03873001
251	0xbbd31d95	-0.0064427354
252	0x3d5a0d4c	0.053235337
253	0x3d635c87	0.055508163
254	0x3caeb9c1	0.021328809
255	0x3b125664	0.0022329325

fc1.bias f4 [120]
0	0x3dc66b61	0.0968845
1	0xbafc52ff	-0.0019250809
2	0x3cd38327	0.025819374
3	0x3e368184	0.17822844
4	0x3d82fa5e	0.0639541
5	0x3cd9e85e	0.02660006
6	0xbcfcc738	-0.030856714
7	0x3e06a12f	0.13147424
8	0xbc9e8fcc	-0.019355677
9	0xbcc2da8a	-0.023785848
10	0x3c81b260	0.015832126
11	0x3ded3d2b	0.115839325
12	0x3bf46b78	0.0074591003
13	0xbd10f11d	-0.035386194
14	0x3d8008af	0.06251656
15	0x3ce1b56d	0.02755233
16	0xba6c96b4	-0.0009025142
17	0x3e5d2f62	0.21600106
18	0x3be65676	0.00702935
19	0x3c8b9e89	0.017043369
20	0xbcc09b10	-0.02351144
21	0x3c04b878	0.008100621
22	0x3d20c1f3	0.039247464
23	0xbda7308d	-0.08163557
24	0x3dafde44	0.08587316
25	0x3c5f5e1c	0.013633277
26	0xbd822b08	-0.06355864
27	0xbd8fc9f6	-0.07020943
28	0xbc8bc9dd	-0.01706403
29	0xbc90a24a	-0.01765551
30	0x3cc08eda	0.023505617
31	0xbc9ca09f	-0.019119559
32	0xbd88a029	-0.06671173
33	0x3b44c647	0.003002541
34	0x3dbd1348	0.09232193
35	0xbdf018d7	-0.11723488
36	0x3cef0e69	0.029181676
37	0x3de57144	0.11203244
38	0x3c1adf87	0.009452707
39	0xbd443238	-0.047899455
40	0x3d07808f	0.033081587
41	0x3d78068f	0.06055313
42	0x3d9fcc7b	0.078026734
43	0x3cedc713	0.02902559
44	0x3e05affe	0.13055417
45	0xbd269a3d	-0.040674437
46	0xbd0caa07	-0.03434184
47	0x3ccc73c7	0.02495755
48	0xbd843576	-0.06455509
49	0x3dbba3a6	0.09162073
50	0x3d2c6340	0.04208684
51	0xbdd344a6	-0.10315828
52	0x3b56f8c7	0.0032802091
53	0x3dbfc0fa	0.09362979
54	0x3c855abf	0.016278623
55	0x3da7f820	0.08201623
56	0x3d1fc8d5	0.039009888
57	0xbd4be76b	-0.049781244
58	0xbdc97671	-0.09837044
59	0xbc9782ac	-0.018494926
60	0x3d263d51	0.04058582
61	0x3e265404	0.16242987
62	0xbda6a6ba	-0.08137269
63	0xbc9a08e1	-0.018803062
64	0xbc912ef1	-0.017722579
65	0x3e1726ab	0.14760844
66	0x3e3e3303	0.18574147
67	0x3d3d4899	0.046211813
68	0xbd7e3faa	-0.062072434
69	0x3e2cf23e	0.16889283
70	0x3d6c2620	0.057653546
71	0x3d390c2e	0.04517763
72	0xbe20d473	-0.15706043
73	0xbbf3eab3	-0.00744375
74	0xbc83cba8	-0.016088322
75	0x3cd9ff5d	0.026611025
76	0xbd31a32a	-0.043368496
77	0x3d724e91	0.059156958
78	0x3c11d50a	0.00890089
79	0x3bf902f3	0.0075992285
80	0x3e22be9f	0.15893029
81	0x3e1c999d	0.15292974
82	0x3de4cfe4	0.111724645
83	0x3c2aa22c	0.010414641
84	0x3bb0f2eb	0.005400052
85	0xbe0a4c85	-0.13505752
86	0x3c89e782	0.016834024
87	0xbcfbbd5f	-0.030729948
88	0xbd8d0ebf	-0.06887578
89	0x3e1c3138	0.1525315
90	0xbb4ac2a5	-0.003093877
91	0x3d3f5eef	0.046721395
92	0x3cbc67f0	0.02299878
93	0xbdda787a	-0.1066751
94	0x3db6aafa	0.0891933
95	0x3cd5c950	0.02609697
96	0xbd1ba3ce	-0.037998013
97	0x3a943784	0.0011308049
98	0x3de5ab41	0.11214305
99	0x3c363d20	0.011122972
100	0xbc4d6860	-0.012537092
101	0x3dcbd7be	0.09953259
102	0x3d9d6941	0.07686091
103	0xbd9e8cb7	-0.07741683
104	0x3d958237	0.07300227
105	0x3da025ef	0.07819735
106	0x3a45b926	0.0007542543
107	0xbd4ecee5	-0.05049028
108	0x3cf1a20d	0.029496217
109	0xbd6b9150	-0.057511628
110	0x3cfba0ee	0.030716386
111	0x3ca94a71	0.02066538
112	0x3d03348c	0.032032534
113	0xbdd79724	-0.10526875
114	0x3d098cad	0.033581425
115	0x3c089545	0.00833637
116	0x3e0dc1a0	0.13843393
117	0x3ddfdaac	0.1093038
118	0x3b94c7c9	0.004540418
119	0x3dd89d95	0.105769314

fc2.weight f4 [84, 120]
0	0x3e06a90d	0.13150425
1	0x3c013aa0	0.007887512
2	0x3da30afe	0.07961081
3	0xbd3ea466	-0.0465435
4	0xbda57550	-0.08079016
5	0xbd1ad74a	-0.037802972
6	0xbdba0949	-0.09083802
7	0x3b656a29	0.0035005903
8	0x3dd75cfa	0.10515781
9	0x3d5151d6	0.051103435
10	0xbc9342b5	-0.017976144
11	0x3dd7d8ea	0.1053942
12	0x3d6bc148	0.057557374
13	0x3c411509	0.0117848
14	0xbc9a6bd2	-0.01885024
15	0x3d547b16	0.051875196
16	0xbd252ef9	-0.040328
17	0x3d579a45	0.052637357
18	0x3e14bb93	0.14524679
19	0xbdd0b5ac	-0.10190901
20	0x3d9e1abf	0.07719945
21	0xbd4c85cf	-0.049932297
22	0xbd85c887	-0.06532388
23	0xbd8b6404	-0.06806186
24	0x3deb640f	0.11493694
25	0x3daf6d29	0.085657425
26	0xbd09ad48	-0.03361252
27	0xbdd3dd75	-0.10344974
28	0x3ca45ea3	0.020064658
29	0x3ce98978	0.028507933
30	0x3d2c2a9d	0.042032827
31	0xbd5f0f95	-0.05445822
32	0x3dbe5046	0.09292655
33	0xbb4b9a74	-0.0031067403
34	0x3d9c8e29	0.076443024
35	0xbcf6408f	-0.03006008
36	0xbd8dec9f	-0.069298975
37	0xbb9984fc	-0.0046850424
38	0x3c977093	0.018486297
39	0x3d9347ea	0.07191451
40	0x3cfce2ff	0.030869959
41	0xbd00a88d	-0.031410743
42	0xbbf06cbd	-0.0073371814
43	0xbd0d3785	-0.034476776
44	0x3ce97b2f	0.028501121
45	0xbd1979e5	-0.037469763
46	0xbc1cc285	-0.009567861
47	0xbd82d459	-0.06388158
48	0x3d846180	0.06463909
49	0xbcfac357	-0.030610723
50	0xbd3113d5	-0.043231804
51	0xbd5b6216	-0.05356034
52	0x3b3dfdea	0.0028990456
53	0xbdb43fad	-0.08801208
54	0xbdb4a183	-0.088198684
55	0xbdb093df	-0.08621954
56	0x3db67ef8	0.08910936
57	0xbcdc352e	-0.026880827
58	0x3ddf17ac	0.10893187
59	0x3d865cbf	0.06560659
60	0xbd1329ed	-0.035928655
61	0x3e2389e7	0.15970574
62	0xbc62d5fa	-0.013844961
63	0xbcdd6b35	-0.02702866
64	0x3be37429	0.0069413376
65	0xbd6eecd2	-0.05833132
66	0x3d88819a	0.066653445
67	0xbdc57ef9	-0.09643359
68	0x3d9c07e1	0.0761869
69	0x3c697a3e	0.014250336
70	0xbdf5f9e0	-0.120105505
71	0xbdb5b6f3	-0.088727854
72	0x3d54e5ee	0.05197709
73	0x3c0ad0db	0.008472647
74	0xbde15a34	-0.11003533
75	0x3c8bf31f	0.017083703
76	0xbda922eb	-0.08258613
77	0xbd999b2f	-0.07500302
78	0xbdaf6636	-0.08564417
79	0xbca1983a	-0.019725908
80	0xbcc3521b	-0.023842862
81	0xbc2e53a2	-0.010640057
82	0x3e04a772	0.129545
83	0x3cfb533a	0.030679334
84	0xbcbbe029	-0.022934036
85	0x3c2d36e1	0.010572166
86	0x3c9cdc23	0.019147938
87	0xbd44736e	-0.047961645
88	0xbd580517	-0.05273923
89	0xbcaea443	-0.02131856
90	0xbc9dea69	-0.019276815
91	0x3cff3837	0.031154735
92	0xbdb61012	-0.08889784
93	0xbd8e0698	-0.069348514
94	0x3c3bc254	0.011459906
95	0xbb3d4060	-0.0028877482
96	0xbd385217	-0.045000162
97	0x3d31650f	0.043309268
98	0xbd145773	-0.03621621
99	0xbd88e93d	-0.06685112
100	0x3d68f072	0.05686993
101	0x3dce4206	0.10071187
102	0x3d0bbf7a	0.034118153
103	0xbe17621f	-0.14783524
104	0x3dab04fa	0.083505586
105	0xbddf62eb	-0.10907539
106	0x3ca1b252	0.01973835
107	0x3cd3f397	0.025872989
108	0x3de5427f	0.11194324
109	0xbbad55b5	-0.005289758
110	0x3d5a43a4	0.053287163
111	0x3e1a790d	0.1508524
112	0x3c03dbee	0.008048041
113	0xbd57b5da	-0.05266366
114	0x3d9bf614	0.07615295
115	0x3cbb4763	0.022861188
116	0x3d814739	0.06312413
117	0xbc41c730	-0.011827275
118	0xbd408c20	-0.047008634
119	0xbbc3ee27	-0.0059793177
120	0xbd33de6d	-0.043913294
121	0xbdbbae29	-0.09164078
122	0x3d96948d	0.073525526
123	0x3d92b052	0.07162537
124	0x3d8cfe6d	0.06884465
125	0x3d87b2d0	0.06625903
126	0xbd8ddca7	-0.06926852
127	0x3d79c9d3	0.06098349
128	0xbdb3b66c	-0.087750286
129	0x3db313a1	0.08743978
130	0xbc0d2b70	-0.008616313
131	0xbd4f775f	-0.05065095
132	0xbd8f4d9a	-0.06997223
133	0x3df10587	0.117686324
134	0x3d1f7e8f	0.038939055
135	0x3ca0296a	0.019550998
136	0x3cc58159	0.02410953
137	0x3e16e9c8	0.14737618
138	0x3c94b371	0.01815197
139	0x3ba637bb	0.0050725616
140	0x3cead89d	0.028667742
141	0xbd98d8e9	-0.07463247
142	0xbdc54dee	-0.096340045
143	0x3d665c49	0.056240354
144	0xbd8786e5	-0.06617526
145	0xbd528e85	-0.05140545
146	0x3d32e8f8	0.043679208
147	0xbc8a29c5	-0.01686562
148	0xbd0ceeb7	-0.034407344
149	0xbc205174	-0.009785045
150	0xbc845b94	-0.01615695
151	0xbd292343	-0.041293394
152	0xbb9c249f	-0.0047651078
153	0xbe08e43f	-0.13368319
154	0xbda67275	-0.081273
155	0xbd54bac0	-0.05193591
156	0x3d8bc3a9	0.068244286
157	0x3d819915	0.06328026
158	0x3ca38ea9	0.019965487
159	0xbd31f753	-0.043448757
160	0x3cb8f84d	0.022579337
161	0x3db1d0eb	0.08682426
162	0xbda94caa	-0.08266576
163	0x3d808de7	0.06277066
164	0xbd865beb	-0.06560501
165	0xbdc02951	-0.093828805
166	0x3cd0a879	0.025470959
167	0xbd96cb1c	-0.07362959
168	0xbdd362fe	-0.10321616
169	0xbda0822e	-0.0783733
170	0x3dfbe36b	0.12299236
171	0xbcb00dba	-0.02149092
172	0x3d948468	0.07251817
173	0x3d27a108	0.040925056
174	0xbc2b40bc	-0.010452446
175	0xbcf19716	-0.029490989
176	0xbd3e2bae	-0.046428375
177	0x3c90bf37	0.017669303
178	0xbc4064bf	-0.01174277
179	0x3dac5628	0.084148705
180	0xbde5964d	-0.11210308
181	0xbbbfcff9	-0.0058536497
182	0x3d8294af	0.063760154
183	0xbccc7e40	-0.024962544
184	0xbd06e1dc	-0.03293024
185	0xbdcf36c6	-0.10117869
186	0xbd2f9d49	-0.04287461
187	0xbcdac1dc	-0.026703767
188	0xbd7a0d7e	-0.061048023
189	0xbd160fcf	-0.03663617
190	0x3d6ab39b	0.05730019
191	0x3d8245fd	0.063610055
192	0x3d15ce94	0.03657396
193	0x3d91c71a	0.07118054
194	0x3e3629ee	0.17789432
195	0x3cd26bff	0.025686262
196	0xbd9627f7	-0.073318414
197	0x39dd716f	0.0004223692
198	0xbd6d3cb7	-0.05791923
199	0x3dd09fb7	0.10186713
200	0x3d54b71e	0.051932447
201	0x3d7e26d0	0.062048733
202	0x3d1348cf	0.035958108
203	0x3e065e03	0.131218
204	0xbd64c9fb	-0.055856686
205	0xbd2a39b0	-0.04155892
206	0x3c96a6a3	0.018390005
207	0x3d145599	0.036214445
208	0xbdaa284c	-0.08308467
209	0xbd7d055b	-0.061772685
210	0x3c25fa1f	0.010130434
211	0xbd8a0e51	-0.06741012
212	0xbc4e364b	-0.012586187
213	0xbba77e8d	-0.0051115216
214	0xbcd07f2f	-0.02545127
215	0x3d8a0a3f	0.067402355
216	0xbc267d39	-0.010161691
217	0x3c196969	0.009363511
218	0xbd276ea0	-0.040876985
219	0x3d158104	0.036499992
220	0x3d650774	0.05591531
221	0x3c8270f7	0.015923006
222	0xbc475400	-0.012166023
223	0xbd1926ed	-0.03739064
224	0xbccc6f7e	-0.024955507
225	0x3ddb45f7	0.10706704
226	0xbd3472e3	-0.044054877
227	0x3cdcec7d	0.026968235
228	0x3d99f549	0.075174876
229	0x3d8ceb98	0.068808734
230	0xbd363848	-0.044487268
231	0x3d6a21a1	0.057160977
232	0xbd3632d6	-0.044482075
233	0x3d1b2a25	0.03788199
234	0xbd03ffad	-0.032226253
235	0xbd9dd213	-0.07706084
236	0xbc804ba7	-0.015661074
237	0x3ca73aac	0.02041372
238	0xbc72ef7f	-0.014827608
239	0xbc3eef1c	-0.011653688
240	0xbdab68aa	-0.083695725
241	0xbd098b15	-0.033579905
242	0x3d43d733	0.04781265
243	0xbdfa4a5a	-0.12221213
244	0xbd5242fc	-0.051333413
245	0xbce5fa15	-0.02807335
246	0xbdd72188	-0.105044425
247	0xbd4eefaf	-0.05052155
248	0x3de8be05	0.11364368
249	0x3ca6cfa3	0.02036268
250	0x3cf4560b	0.029826185
251	0xbd5e196b	-0.05422346
252	0xbdbcb3d5	-0.09213988
253	0x3e093507	0.13399135
254	0x3d63aaae	0.055582695
255	0x3d54ebcd	0.05198269

fc2.bias f4 [84]
0	0x3ca37dee	0.019957509
1	0x3e1c0738	0.15237129
2	0xbd44496b	-0.04792158
3	0xbd40bd13	-0.047055315
4	0x3eb1ff3b	0.34765038
5	0x3e7c25f2	0.2462385
6	0x3db49299	0.08817024
7	0x3e650e76	0.22368798
8	0xbdc1121b	-0.094272815
9	0x3c45d2be	0.012074171
10	0x3d68b15d	0.05680977
11	0x3e19f95b	0.15036528
12	0xbd708eaf	-0.058729824
13	0x3d0fb9ce	0.035089307
14	0x3d8c8199	0.06860656
15	0xbd39b0e7	-0.045334723
16	0x3d2332f3	0.03984351
17	0xbd5e9a24	-0.05434622
18	0x3e3b3233	0.18280868
19	0xbd5397f8	-0.0516586
20	0xbdff61ee	-0.124698505
21	0x3e4b1e8b	0.1983587
22	0x3e5ba278	0.21448696
23	0x3dcd9edb	0.10040065
24	0x3e4c4772	0.19949129
25	0x3e192cb5	0.1495846
26	0xbd56cef2	-0.052443452
27	0xbe0647f7	-0.1311339
28	0x3e12f1b9	0.14350022
29	0x3c096429	0.008385696
30	0x3e831deb	0.25608763
31	0xbc39c18d	-0.01133765
32	0x3dea6e2b	0.11446794
33	0xbd9351ed	-0.071933605
34	0xbd934641	-0.07191134
35	0x3cb80966	0.022465419
36	0xbddc6fb2	-0.10763492
37	0x3b9da287	0.0048106345
38	0x3df8b9ed	0.121448375
39	0x3e053f1d	0.13012357
40	0x3e5220be	0.20520303
41	0xbd39823c	-0.045290217
42	0x3b890c8f	0.0041824053
43	0x3ead6957	0.3386943
44	0xbe209898	-0.1568321
45	0x3dd8684e	0.105667695
46	0x3c584afd	0.013201472
47	0xbc034c52	-0.008013802
48	0x3e9f0e7c	0.31065738
49	0x3e207465	0.15669401
50	0x3d5b9ddf	0.053617354
51	0x3d43c938	0.04779932
52	0x3dfc93e0	0.123328924
53	0xbdc6c953	-0.09706368
54	0x3e0e370c	0.13888186
55	0xbdd7a4f7	-0.105295114
56	0xbcade576	-0.02122758
57	0xbb6ddddb	-0.0036295566
58	0x3d453522	0.048146375
59	0x3d95553e	0.07291649
60	0xbdc4ea80	-0.0961504
61	0xbcd7ad5f	-0.026327787
62	0x3cae1ce0	0.021254003
63	0xbd870196	-0.06592099
64	0xbdcede5e	-0.10101007
65	0xbcbeb9e1	-0.023281993
66	0x3d8b8354	0.06812158
67	0x3ccf907b	0.025337448
68	0x3de10403	0.10987093
69	0xbde4db54	-0.11174646
70	0x3d7796f4	0.060446694
71	0xbd36591b	-0.04451857
72	0xbc60b6ff	-0.013715505
73	0xbb5d4bd9	-0.0033767133
74	0x3de56260	0.11200404
75	0x3e2a01e9	0.16602291
76	0x3eb03571	0.34415773
77	0x3e635a70	0.22202468
78	0x3e64d08e	0.22345182
79	0x3e92706b	0.28601393
80	0x3c9c618c	0.019089483
81	0xbcb6edf9	-0.022330271
82	0xbd1251d1	-0.035722557
83	0xbd2afe5e	-0.04174649

fc3.weight f4 [10, 84]
0	0x3ddac58a	0.10682209
1	0x3d252eab	0.04032771
2	0x3eaa4495	0.3325545
3	0xbc1a39aa	-0.009413162
4	0x3e86b049	0.2630637
5	0xbe345624	-0.17610985
6	0x3e512209	0.2042314
7	0x3e68d7bb	0.22738545
8	0x3cde47a0	0.027133763
9	0xbd889157	-0.066683464
10	0x3d358207	0.044313457
11	0x3dbd34e9	0.092386074
12	0x3bd261c2	0.006420345
13	0x3de221a9	0.110415764
14	0xbe90cceb	-0.2828134
15	0x3db5eccb	0.08883055
16	0xbe5363c2	-0.20643523
17	0xbddbdc02	-0.107353225
18	0x3dc52e2f	0.096279494
19	0xbda89902	-0.08232309
20	0x3e06811a	0.13135186
21	0xbe2426e2	-0.16030458
22	0xbc0296ac	-0.007970493
23	0x3bf890e2	0.0075856308
24	0xbc166884	-0.009180192
25	0x3e1ed784	0.155119
26	0x3de575d1	0.11204112
27	0xbd83f538	-0.06443256
28	0x3e2d2411	0.1690829
29	0x3df67a2d	0.12035022
30	0xbe956128	-0.29175687
31	0x3dc886a6	0.09791307
32	0x3d13225a	0.035921432
33	0xbd64cac0	-0.05585742
34	0x3e23c269	0.1599213
35	0x3d8615b0	0.06547105
36	0x3daee370	0.08539474
37	0x3dcde564	0.100535184
38	0xbe322942	-0.17398551
39	0xbe26367a	-0.16231719
40	0xbc4281fc	-0.011871811
41	0xbd191f27	-0.037383225
42	0x3d1c8161	0.038209323
43	0x3dc7930d	0.097448446
44	0x3c51b054	0.012798388
45	0xbda71a0e	-0.081592664
46	0xbd56d887	-0.05245259
47	0xbe2134ce	-0.157428
48	0x3cca9b42	0.024732236
49	0xbc70cca4	-0.014697228
50	0xbd83aa8f	-0.06429016
51	0xbc712d47	-0.014720268
52	0xbe26ca04	-0.16288
53	0xbddbad91	-0.107264645
54	0x3e60add5	0.21941312
55	0xbe4e4d3f	-0.20146655
56	0x3e816f0d	0.25280038
57	0x3dd93a7f	0.1060686
58	0x3cd2cf13	0.025733506
59	0x3d9db053	0.07699647
60	0x3d0d11ba	0.034440733
61	0x3e0e9bcf	0.13926624
62	0xbda0926a	-0.07840426
63	0xbbd4de2f	-0.006496213
64	0xbb9ae2e3	-0.004726754
65	0x3e8abdf9	0.27098063
66	0xbe388a73	-0.18021564
67	0xbddafb4b	-0.106924616
68	0x3d71aef3	0.059004735
69	0x3e0c765e	0.13717028
70	0x3db5047b	0.08838745
71	0x3e8a753c	0.27042568
72	0xbd6d7157	-0.057969417
73	0xbd8cf736	-0.06883089
74	0x3d3ad852	0.045616455
75	0xbd7eef7a	-0.0622401
76	0xbe232c7b	-0.15934937
77	0xbd9de4d0	-0.07709658
78	0x3d6abfa7	0.05731168
79	0x3e009c79	0.1255969
80	0xbdade130	-0.08490217
81	0x3d0e72af	0.03477734
82	0x3ded4ab4	0.11586514
83	0x3da17b59	0.07884855
84	0x3e242cde	0.1603274
85	0xbe0884a2	-0.13331845
86	0xbd0ab72b	-0.03386609
87	0x3d22766e	0.039663725
88	0xbd935c16	-0.071952984
89	0xbd883c5c	-0.06652138
90	0x3e91ae6d	0.2845339
91	0x3d43f32c	0.04783933
92	0xbd82a5ba	-0.06379266
93	0x3d3efd4b	0.046628278
94	0xbd2b4378	-0.04181239
95	0xbdde783b	-0.10862776
96	0xbdb13591	-0.08652795
97	0xbdbdc99d	-0.0926697
98	0xbd928ee3	-0.0715616
99	0xbd79bd24	-0.060971394
100	0x3e22b846	0.15890607
101	0xbe132ccb	-0.14372556
102	0xbe7a1d96	-0.24425349
103	0x3d837bcc	0.06420097
104	0x3d4eb689	0.050467048
105	0x3cb7ba67	0.02242775
106	0xbd193eba	-0.037413336
107	0xbcdc445d	-0.026888067
108	0xbe8937f5	-0.26800504
109	0xbd057b7c	-0.032588467
110	0x3e08d79a	0.13363495
111	0x3dac7274	0.08420268
112	0x3eb85776	0.36004227
113	0x3d87efe5	0.06637553
114	0xbdd3d19c	-0.10342714
115	0x3ea23bfa	0.31686383
116	0x3e520be8	0.20512354
117	0x3d827e7f	0.063717835
118	0x3d9ff9e2	0.07811333
119	0xbda7dc73	-0.08196344
120	0x3db85644	0.09000829
121	0xbdc39a32	-0.09550895
122	0xbe20d855	-0.15707524
123	0xbe7e467b	-0.24831574
124	0xbe5caf6a	-0.2155129
125	0x3e7b6539	0.24550332
126	0xbdf8855f	-0.121348135
127	0xbdd3eda4	-0.10348061
128	0x3e73b354	0.23798877
129	0xbe22efae	-0.15911743
130	0xbd326707	-0.043555286
131	0x3c8557a3	0.01627714
132	0xbe4e20b8	-0.20129669
133	0xbe10e4d5	-0.14149792
134	0xbd526d13	-0.051373553
135	0xbe2df3ee	-0.16987583
136	0xbcd8f8af	-0.02648577
137	0xbb8d7ca9	-0.004317839
138	0xbddf7174	-0.10910311
139	0x3e614856	0.2200025
140	0xbdd4d12b	-0.10391458
141	0xbda42324	-0.08014515
142	0xbd802426	-0.06256895
143	0x3dd430d7	0.10360878
144	0x3d5c940c	0.053852126
145	0x3d106541	0.035252813
146	0x3eaa9e4e	0.33323902
147	0xbdddbab4	-0.108266264
148	0xbd851965	-0.06498984
149	0x3d8059cd	0.06267128
150	0x3dcec1b7	0.10095542
151	0xbdd7284f	-0.10505735
152	0xbe37b3b0	-0.17939639
153	0x3d9e1595	0.0771896
154	0xbddcdefc	-0.107847184
155	0x3e3b37e6	0.18283042
156	0xb9b8cd5a	-0.00035248214
157	0x3e310ffd	0.17291255
158	0x3e5dc4f1	0.21657158
159	0x3e32ea3c	0.17472166
160	0xbe913f4e	-0.2836861
161	0xbe54f38a	-0.20796028
162	0xbe0d8211	-0.13819148
163	0xbdb0e70e	-0.0863782
164	0xbe40b43a	-0.18818751
165	0x3d912740	0.070875645
166	0xbdd995a3	-0.10624244
167	0xbcf60bd2	-0.030034933
168	0xbda02bb8	-0.07820839
169	0x3e92be47	0.28660795
170	0x3dcbda1e	0.09953712
171	0x3d048e55	0.0323623
172	0x3bd2beac	0.0064314213
173	0xbc734b32	-0.014849471
174	0xbe079a38	-0.13242424
175	0x3d245c7f	0.040127274
176	0x3d90910a	0.07058914
177	0x3e3e8a7d	0.18607517
178	0x3c16f92c	0.009214681
179	0x3d33d2f1	0.04390234
180	0xbd2be3a0	-0.041965127
181	0x3d6e2d8e	0.058148913
182	0xbe083943	-0.13303094
183	0x3ce256f4	0.027629353
184	0x3d1b23d9	0.037875984
185	0x3e524765	0.20535047
186	0x3e8676d0	0.26262522
187	0xbc31afad	-0.010845107
188	0xbd4bac2f	-0.049724754
189	0x3dc2e23e	0.095158085
190	0xbd74ba76	-0.059748136
191	0xbd7446d8	-0.059637874
192	0x3d6b3a57	0.057428684
193	0xbdd0783c	-0.10179183
194	0xbe806de6	-0.25083846
195	0x3dc86966	0.09785728
196	0xbe322482	-0.17396739
197	0xbdb7073f	-0.08936929
198	0x3e783cde	0.24241969
199	0xba8e9c54	-0.001088033
200	0xbd3334d8	-0.043751568
201	0xbd84e00e	-0.064880475
202	0xbc83961a	-0.016062785
203	0xbde6d8de	-0.11271833
204	0xbc8f8635	-0.01752005
205	0xbd07849b	-0.033085447
206	0x3c88082c	0.01660546
207	0xbd0af85c	-0.03392826
208	0x3c300d53	0.010745364
209	0xbb9fa508	-0.004871968
210	0x3d960ed1	0.07327045
211	0x3dc82ada	0.09773798
212	0xbe14f89f	-0.14547966
213	0x3e5502f5	0.2080191
214	0xbcfb71bb	-0.03069388
215	0xbdef43fc	-0.11682889
216	0x3e0c3a09	0.13694014
217	0x3c8cd18b	0.017189762
218	0x3cdf5d95	0.027266303
219	0xbe2ee237	-0.17078482
220	0x3e28e745	0.16494472
221	0x3d3c6892	0.045998164
222	0x3bc2fef9	0.0059508053
223	0xbd6e17ea	-0.058128275
224	0x3ddc1d38	0.107477605
225	0xbd81d2ac	-0.063390106
226	0x3e94ca9e	0.29060835
227	0xbde0329e	-0.109471545
228	0xbdb5e5be	-0.088817105
229	0xbe03aceb	-0.12858932
230	0xbe4be251	-0.19910552
231	0x3db913da	0.090369895
232	0x3d57a5a3	0.052648198
233	0x3dee3456	0.11631076
234	0xbd224501	-0.03961659
235	0xbdd2705f	-0.10275339
236	0xbe00d146	-0.12579831
237	0x3e3037f5	0.17208846
238	0x3c74d496	0.014943263
239	0x3d15b516	0.03654965
240	0x3b506239	0.0031796827
241	0xbd5aef2d	-0.053450752
242	0x3d2d0f27	0.04225078
243	0xbd46b905	-0.048516292
244	0x3dcb62dc	0.09930965
245	0x3e8563e1	0.26052764
246	0x3d6ec203	0.058290493
247	0x3d74c08c	0.05975394
248	0x3c2dbb82	0.010603787
249	0x3df8beb3	0.12145748
250	0xbd827b5b	-0.063711844
251	0xbdf6de94	-0.12054172
252	0xbe7b0bd9	-0.24516238
253	0xbc1b3eb3	-0.009475398
254	0x3d8bbf25	0.06823567
255	0xbd5c1863	-0.053734194

fc3.bias f4 [10]
0	0xbdd7f370	-0.10544479
1	0xbee7b89d	-0.45258036
2	0x3e568ad1	0.20951392
3	0x3ea0a1e1	0.31373504
4	0x3e78b8b8	0.24289215
5	0xbdac443b	-0.084114514
6	0x3cc8d3d0	0.024515063
7	0xbeb008dc	-0.3438176
8	0x3ec864ea	0.3913949
9	0xbe16f19a	-0.14740601
