pytorch/cifar_net.pth (torch_old, 249602 bytes, 10 tensors)

conv1.weight f4 [6, 3, 5, 5]
000000 1a 72 14 3d 74 0f 11 be a3 32 f3 3d 16 4f 9b bd
       0.03624163 -0.14166051 0.118748926 -0.07583444
000010 12 b4 14 be cb 1c 6d bd f9 43 48 3e e5 a2 91 3d
       -0.14521816 -0.057888787 0.1955718 0.07111148
000020 fd 94 55 3c a7 92 73 be 2d 63 73 be bb 6b e4 be
       0.01303601 -0.23786412 -0.23768301 -0.44613442
000030 57 a4 18 bf 5e a2 e6 be 9f 04 6d be 23 59 8b bd
       -0.5962576 -0.4504575 -0.23146294 -0.06804111
000040 27 10 9f be 6f bc d2 be d5 9f 87 be f3 70 05 3e
       -0.3106701 -0.41159388 -0.2648913 0.13031368
000050 78 77 7e 3e 83 d4 1a 3f 51 05 32 3f 32 94 2a 3f
       0.24850261 0.6048052 0.6953936 0.6663238
000060 c8 fb ce 3e 71 44 ef 3d f3 2d 8b bc ca cc 85 3e
       0.4042647 0.11682976 -0.016989684 0.26132804
000070 9e b3 dc 3c 61 52 55 3d 61 68 e4 3d f5 8e dc 3e
       0.026941117 0.052080516 0.11152721 0.43077818
000080 e3 dc 84 3e c6 f4 80 3e e2 cc f2 bc 20 50 05 bc
       0.25949773 0.25186747 -0.029638711 -0.008136779
000090 ab d8 ff bd 91 6c 83 be 87 6f 55 be a0 7d 12 bb
       -0.12492498 -0.25668767 -0.20843326 -0.002235271
0000a0 f3 4a 9f bd 98 3c 8b be 2e d9 c2 be fc ab 89 be
       -0.07777967 -0.27194667 -0.3805632 -0.26889026
0000b0 c0 70 7a bd 2d f3 9e 3c 0f ff 56 3e 64 9c ae 3e
       -0.061142683 0.019403065 0.20995735 0.34103692
0000c0 2f 2a 91 3e fc 24 24 bd b7 cb 69 bd 18 91 97 3c
       0.28352496 -0.040074334 -0.057079043 0.018501803
0000d0 28 ed 89 3d 7f 4a 9f 3b a3 1c 01 3e 65 88 24 3d
       0.06734687 0.0048611755 0.1260858 0.04016914
0000e0 a5 67 4f 3e 9f 2c 8d 3e fd d4 27 3e 08 d6 51 3e
       0.20254381 0.27573106 0.16389842 0.20491803
0000f0 40 e8 c7 bc 20 6d 8a be da 8a 89 be 3e 13 b1 be
       -0.024402738 -0.2703638 -0.26863748 -0.34584993
000100 ec 2b bc bc 96 45 d3 bd 7a ed 92 be fd 61 a2 be
       -0.022970162 -0.10316007 -0.28696805 -0.31715384
000110 eb b1 0b be 39 d3 82 bc 3f 7b c3 bc 9b db 16 3e
       -0.13642089 -0.01596986 -0.02386248 0.1473221
000120 46 61 ab 3e 7f a8 46 3e 80 f1 b1 3d 69 cd e7 3e
       0.3347265 0.19400214 0.086886406 0.45273903
000130 e5 28 bb 3d a8 49 3c bd ba 7e aa 3d dc 16 e3 3d
       0.091386594 -0.04596868 0.083249524 0.110883445
000140 05 49 b3 3e 1b 77 1c be 8f db a7 be 99 da 58 3d
       0.35016647 -0.1527981 -0.32784697 0.052942846
000150 c7 c9 0f 3e 8d 06 c0 3e 65 0b ab be 1d dd ef be
       0.14041816 0.37504998 -0.3340713 -0.46848384
000160 fb ae a2 3d c6 22 a5 3e 27 56 ed 3c b6 ee fd be
       0.07943531 0.32253093 0.028971745 -0.49596184
000170 a7 aa 98 be 1e 44 a2 3e c4 38 65 3e 7d c8 07 be
       -0.29817697 0.31692594 0.22384936 -0.13260074
000180 d4 67 9e be bd c6 b0 bd c9 6c 56 3e 4a 97 00 3e
       -0.3093859 -0.08631656 0.20939936 0.12557712
000190 4d 2f 4d bd d6 a9 49 bd 61 3a 90 be cb 22 43 be
       -0.050093938 -0.049234234 -0.2816954 -0.19056241
0001a0 62 a0 ef bd b8 42 43 3e 24 20 5c be a8 7d fa be
       -0.117005125 0.1906842 -0.21496636 -0.48923993
0001b0 93 c1 17 3e bc 49 5b 3e 9a 2b a7 3e 30 09 08 bf
       0.14819936 0.21414846 0.32650453 -0.5313902
0001c0 a3 36 0e bf 22 e1 5f 3e df 2b 7b 3e c2 3a f9 3d
       -0.5555212 0.21863225 0.24528454 0.1216941
0001d0 64 f9 00 bf 7a 43 c9 be c7 42 8f 3e fb d2 86 3e
       -0.5038054 -0.39309293 0.27980635 0.2633284
0001e0 60 70 c2 3c ed 2b 0b be 90 46 20 be 98 3b 85 3e
       0.023735225 -0.13590975 -0.15651917 0.2602203
0001f0 07 8d eb 3d d4 42 53 bd 57 8c 5c be e2 53 cb bd
       0.11501508 -0.051577404 -0.2153791 -0.09928109
000200 2a 30 06 bd 82 a1 0b bd 4c cb 56 3e 3f f4 1a be
       -0.032760777 -0.034089573 0.20975989 -0.15132235
000210 64 ff ac be e5 ec d9 3c 21 cd 08 3e eb 10 b4 3e
       -0.33788598 0.026602218 0.133595 0.35169157
000220 1a 40 d2 be 83 8e c4 be 69 e3 8d 3e c6 06 9e 3e
       -0.4106453 -0.38389978 0.27712563 0.30864543
000230 f6 39 bc 3d 1c c6 c8 be 98 5f 39 be 5f 75 d7 3e
       0.09190743 -0.39213645 -0.18102872 0.42081735
000240 e2 5d 87 3e 33 cc 2f 3e ea 96 4e be ea 8d 09 bd
       0.26438814 0.1716774 -0.20174757 -0.033582605
000250 ba 44 59 3e 99 07 b2 3d 08 ff 2d be 57 1e a5 bd
       0.21217623 0.086928554 -0.16991818 -0.080624275
000260 46 47 ae bd f9 9e 58 3d 01 f1 c2 3d 33 7f f9 bd
       -0.08509688 0.052885983 0.09518624 -0.121824645
000270 71 6d 51 bd 10 fe 2d bd 42 5d 36 be 68 ba 0f bd
       -0.051129762 -0.04247862 -0.17809013 -0.03508988
000280 c5 aa 6d bd 61 25 ca bd eb 0b a0 bd 34 c8 12 be
       -0.058024187 -0.09870411 -0.07814773 -0.14334184
000290 3c 8c af bd e8 cb 53 be bd 32 67 be 71 53 d5 bd
       -0.085716695 -0.20683253 -0.22577949 -0.10416306
0002a0 4b 8f 22 be a4 e6 1f be 70 13 36 bd 94 9d 1c bd
       -0.15874974 -0.15615326 -0.04445213 -0.038236216
0002b0 42 4e 01 bd 49 98 10 bd 51 2b f5 bd 65 60 52 bd
       -0.031568773 -0.03530148 -0.119711526 -0.05136146
0002c0 9b 0c b2 bd bb 1a 95 bd 7f 8d 91 bd 3e 71 4d bd
       -0.086938106 -0.07280489 -0.07107066 -0.050156824
0002d0 84 71 88 bd 0f a4 76 bd 30 17 fb 3c ed b4 72 3d
       -0.066622764 -0.060215052 0.030650705 0.059254576
0002e0 77 9e d5 3d 0c 38 ec bd 4d 16 a3 3d 84 a6 e8 3c
       0.104306154 -0.115341276 0.07963238 0.028399713
0002f0 f1 60 25 3d 2c d4 97 bd bf 32 b9 3c b0 3f 5b bd
       0.040375654 -0.074135154 0.022607205 -0.053527534
000300 c1 0c a7 bd 4c d9 0c bd 5a 46 4f 3d 5e 7c 3c be
       -0.081567295 -0.034386918 0.0506042 -0.18406817
000310 47 a3 c9 bd 3f 4f 1e bd a9 d1 a3 bd d4 0f 76 bd
       -0.09845596 -0.038649794 -0.07998974 -0.06007369
000320 10 6b 02 3e 96 a2 2a 3e ac 72 7c 3e 5d 62 85 3e
       0.12736154 0.16663584 0.24653119 0.26051608
000330 d9 19 48 3e 3a 18 09 3e 71 66 88 3d ad 10 21 3e
       0.1954111 0.13388148 0.06660164 0.15729018
000340 1f 9e 83 3e 5d 30 ee 3d 01 3c 04 3e f8 d4 45 3e
       0.25706574 0.11630318 0.12913515 0.19319522
000350 ac 78 77 3e 98 1c ab 3e dc 3b 85 3e e0 30 08 3e
       0.24167126 0.33420253 0.26022232 0.13299894
000360 b0 43 75 3e 2b 1e 8d 3e b0 f0 93 3e fa 48 84 3d
       0.23951602 0.2756208 0.28894567 0.06459232
000370 b1 e1 f0 3d f5 10 2c 3e a6 66 f6 3d ff 3b bd 3d
       0.11761797 0.16803344 0.120312974 0.09239959
000380 96 c1 de 3b 09 04 c1 3c b6 91 d2 3d 96 24 ea 3c
       0.0067979796 0.023561494 0.102816984 0.028581899
000390 29 69 fd 3d ba 10 73 bc ee a0 96 3b e6 17 b7 3d
       0.12373573 -0.014835531 0.004596821 0.08940105
0003a0 6d f9 f3 3d fa bf 95 3c 2c be db 3a 01 3b 1d 3e
       0.119128086 0.018280018 0.001676505 0.1535454
0003b0 d3 8e 80 3d 4c 4c 62 3e b8 5e 87 bc 44 df c3 bd
       0.062772416 0.22099417 -0.016524658 -0.09564069
0003c0 3c 03 01 3c c3 ee 2f 3e 16 73 42 3e 82 b4 f9 3d
       0.007874306 0.17180924 0.18989214 0.12192632
0003d0 5e 94 f0 3b 55 43 0e 3e 01 d1 6e 3d 5a b1 88 3c
       0.0073419055 0.13892873 0.05830479 0.01668613
0003e0 0c cd fb 3d 36 fe a2 3d 4e 25 97 3d 6c 23 cb 3b
       0.12294969 0.07958643 0.07380162 0.006199291
0003f0 a3 62 7f bd 20 4a 5a be 25 d7 9b be 28 75 02 3c
       -0.062349927 -0.21317339 -0.3043758 0.007962503

conv1.bias f4 [6]
000000 8f 0d f0 bd 18 54 86 be b0 63 d7 3e e8 4c 3c 3e
       -0.11721336 -0.26236033 0.42068243 0.18388712
000010 20 50 27 3e df 3d d7 be
       0.16339159 -0.4203939

conv2.weight f4 [16, 6, 5, 5]
000000 9d e9 18 bd a3 9e 81 3d aa 91 de 3b 69 00 0b 3a
       -0.037332166 0.06329086 0.006792267 0.00053024903
000010 f1 da 0a be 51 4d c9 bd c4 a2 ae bc f5 9d ec 3c
       -0.13560082 -0.098292 -0.021317847 0.028883914
000020 f1 78 3f bd ee 6d 13 bd db 31 3e bd ea c4 8d bc
       -0.046746198 -0.03599351 -0.046434265 -0.01730581
000030 bb 8a f9 bb af 04 0e 3c c0 27 23 be 86 73 ee 3b
       -0.007615415 0.008668109 -0.15933132 0.007276955
000040 fc a4 5f 3d 2a 04 b6 3d a0 94 17 bd 79 7a b9 3c
       0.0546007 0.08887513 -0.037006974 0.022641407
000050 f0 64 d7 3b 56 e1 09 3e fa 13 a9 3d bb ab 4e 3d
       0.006573312 0.13464865 0.08255763 0.050456744
000060 35 1d 8c 3c 7e c0 17 3e 32 42 de bc 15 86 2b bd
       0.01710377 0.14819524 -0.027131174 -0.041875917
000070 89 27 bf 3d 9c ee 5f bd 29 f1 17 3c 3c c4 a5 3d
       0.093337126 -0.054670915 0.009273806 0.08094069
000080 b6 ab 29 be 13 ad 2c 3e 11 6d 94 bd 08 e3 59 3d
       -0.16569409 0.16862898 -0.07247365 0.05319503
000090 dc 9a 8f 3d 54 ca 06 be d4 a2 43 3e e9 99 0f bd
       0.07011959 -0.1316312 0.19105083 -0.03505889
0000a0 a3 d5 1f 3d 1a 6d cf bd 1b a4 f7 bd 3d 7f f0 3d
       0.0390221 -0.10128231 -0.120918475 0.11743019
0000b0 9f a1 f1 bb 82 37 0f 3d 9f 50 3d 3c 80 79 b7 bd
       -0.007374003 0.034965046 0.011554866 -0.08958721
0000c0 e9 8d 70 bd 48 5c f0 bd 05 2d 10 bd 4a 0e c1 bd
       -0.058729086 -0.11736351 -0.035199184 -0.094265535
0000d0 0d 69 cf bd 34 b4 56 bd 04 28 82 bd ff d1 13 bd
       -0.10127459 -0.05241795 -0.063552886 -0.03608894
0000e0 1e 1e 11 bd dd a5 cd 3b 87 95 b8 3c b7 49 63 bd
       -0.035429113 0.006275876 0.022532238 -0.05549022
0000f0 da aa d3 3c 36 87 0c bd a3 fb 67 bd 76 17 2a bd
       0.025838304 -0.034308635 -0.056636464 -0.04152628
000100 0b cb 06 bb 23 7b 0b bc c4 00 3b 3c c7 3e 26 3c
       -0.00205678 -0.008513245 0.011413757 0.010146803
000110 25 72 bf 3c 1b 52 fb bc b1 57 9d 3d f6 40 93 3c
       0.023369858 -0.0306788 0.076827414 0.017975312
000120 29 fa 64 3d 5e 10 d7 3d 56 37 07 3e c9 fc 47 bd
       0.055902634 0.10501169 0.13204703 -0.04882506
000130 00 e0 26 3d a5 df 85 3d 18 ca 11 3c 94 a8 50 3e
       0.040740967 0.065367974 0.008898281 0.20376807
000140 e8 f1 e3 bc b1 a1 29 bc 6a bf e1 3c d2 16 c2 3c
       -0.02782531 -0.010353492 0.027557094 0.023692522
000150 9d 50 73 3e bb 1b 51 3d bc 41 d8 3c e6 0d d0 3c
       0.2376122 0.051051836 0.026398532 0.025397252
000160 8c 83 f4 bd b1 c5 69 3e a4 8e f5 3d c9 6b 52 3d
       -0.11939153 0.2282932 0.11990097 0.051372323
000170 27 2e 1f 3c 02 ce d9 bd ab e1 51 3e 70 5d 07 3d
       0.009715593 -0.10634996 0.20496242 0.033048093
000180 0b a2 05 bd 30 04 8e bd 2b 4f 4d 3c 14 39 9c bc
       -0.03262524 -0.069343925 0.012531082 -0.019070186
000190 dd d7 e4 bd 4d 0c fe bd 4f 76 34 3c 15 37 c1 bd
       -0.11173985 -0.1240469 0.011014535 -0.09434334
0001a0 06 18 16 bd 43 68 00 3c 1c a7 a5 bb c7 2e 6a 3d
       -0.036644004 0.007837358 -0.0050553214 0.057173517
0001b0 c9 69 1b bc 03 0d 85 3d 87 e8 fa bd 9d 5f b3 bd
       -0.00948567 0.064966224 -0.12251382 -0.08758471
0001c0 76 60 a1 bd 16 e8 0e 3c 48 2e ee bc 3e e4 ad bd
       -0.078797266 0.008722326 -0.029074803 -0.08490799
0001d0 87 bd dd bd 61 3e 65 bc 9f 9f e1 bd d0 0d 50 bc
       -0.10827165 -0.013991923 -0.110167734 -0.012698606
0001e0 93 e1 6e bd b8 40 8f 3b a4 3a 2a 3d 79 a4 1f bd
       -0.058320593 0.0043717287 0.04155983 -0.038975213
0001f0 76 e4 3d bd 6f 2d d1 3d 42 8a b4 3d b1 6f 1f 3e
       -0.046360455 0.10213744 0.08815433 0.1556995
000200 ac 6e 8a 3d ca 7c 80 3c 14 3b 3c 3d 95 44 b0 3c
       0.0675939 0.015684504 0.04595478 0.021517077
000210 15 5b 8b bd f3 8a 40 3c 66 a7 16 bc 31 45 ca bd
       -0.06804482 0.011751878 -0.009195184 -0.098764785
000220 d5 df d6 bc d0 3a 10 bd 84 46 18 be 8d 8b ec bd
       -0.026229778 -0.035212338 -0.1487065 -0.11550055
000230 1e 56 59 3d 11 e7 9a 3d 5d 65 2c 3e 8c df be 3b
       0.053060643 0.07563604 0.16835542 0.0058249887
000240 3f a8 04 3d a5 b9 ad 3d 46 9f 50 3e 67 44 02 3e
       0.032387014 0.084826745 0.20373258 0.12721406
000250 eb aa 2c 3d a2 9a cb 3d 92 29 5e 3e 82 05 9e 3d
       0.042155188 0.09941603 0.21695545 0.07715894
000260 66 60 5d be fe 67 91 be 06 d5 c5 bd 6d d4 9e 3e
       -0.21618804 -0.28399652 -0.096597716 0.31021443
000270 bc 2d 2a 3d 2c a1 0a be 9c d2 ba be 3b 92 15 be
       0.041547522 -0.13538045 -0.36488807 -0.14606564
000280 d2 6e fd 3d 50 2e 97 bd a9 ff 40 be 15 dd 40 be
       0.12374653 -0.0738188 -0.18847527 -0.18834336
000290 81 5a 03 bd f9 f2 70 bc cb 9a a6 bd aa c1 71 be
       -0.032068733 -0.014706367 -0.08134993 -0.23609033
0002a0 9c 6f 82 be 86 83 a2 bd 18 3f f5 3b 66 f2 cb bd
       -0.25475776 -0.07935242 0.007484328 -0.09958343
0002b0 55 77 21 be a7 55 e0 bd 8a 18 e0 bd e2 55 e3 bd
       -0.15768178 -0.10953837 -0.109421805 -0.11100365
0002c0 b6 ba 59 bd 93 4b 1e 3e 08 64 6d 3e 74 cb b7 3d
       -0.053156577 0.15458517 0.2318269 0.089743525
0002d0 f2 f7 ef bd a8 72 55 bd 53 6f 61 3d b3 12 9a 3e
       -0.11717214 -0.052111298 0.055037808 0.3009239
0002e0 0c b5 10 bd 7d eb 48 be 1d 9b 64 3d 41 b0 b4 bd
       -0.03532891 -0.19621082 0.05581199 -0.0882268
0002f0 70 15 5f 3e 2c 74 63 bc 50 d4 56 be 73 52 03 3d
       0.21785522 -0.013882678 -0.20979428 0.03206105
000300 d0 11 08 3e 43 65 31 3e b7 ba 52 3c 4b 0b a2 be
       0.13288045 0.17323785 0.012861899 -0.3164924
000310 00 93 f3 bd 29 4a 45 3d f7 24 c6 3d 03 2c 6b 3d
       -0.118932724 0.048166428 0.09675019 0.05741502
000320 eb 17 a8 3d 65 d4 43 bd a0 aa b2 bd 5b 36 87 bd
       0.08207687 -0.047809977 -0.087239504 -0.06602164
000330 65 17 bc bc eb 19 a4 3d 50 0a 8d 3c de 17 37 be
       -0.022960374 0.08012756 0.017216831 -0.17880198
000340 91 79 8e bc 59 f8 a2 bb 20 33 db 3d c1 c1 16 3d
       -0.017391952 -0.004973453 0.10703111 0.036805872
000350 30 24 5a bd 37 9f 72 bd 95 70 4c bd 47 f6 94 3d
       -0.053257167 -0.05923387 -0.049912054 0.07273536
000360 a4 44 37 3d 15 82 c4 bd eb 78 de bd aa bf 68 be
       0.044743195 -0.09595124 -0.10862907 -0.22729364
000370 b4 4d 90 bc 75 bc 41 bc eb ee 82 bd ee b3 18 be
       -0.017615177 -0.011824717 -0.06393226 -0.14912388
000380 a4 9d 70 be 1a 5d 3e 3b 3f d4 12 3e 40 cd bd 3d
       -0.23497635 0.0029047192 0.14338778 0.09267664
000390 ce 2d d5 bd ea 3b 2a bd da e6 bd 3c 50 78 9e 3d
       -0.10409127 -0.041561045 0.023181368 0.077377915
0003a0 01 2a 18 3e ff 42 5d be 9f 65 05 be 61 2b f2 bb
       0.14859773 -0.21607588 -0.13027047 -0.007390425
0003b0 ab 1e 43 3e 64 ea 41 3e 5f d4 05 be d2 07 47 be
       0.19054668 0.18937069 -0.13069294 -0.19436577
0003c0 48 e3 14 3c 00 f4 bf 3c 2e 32 77 3e 04 f9 2e bd
       0.009087391 0.023431778 0.24140236 -0.04271795
0003d0 16 3a 49 be e9 fd 0d 3d 07 cf 2c 3d 09 68 65 3e
       -0.19651064 0.034665976 0.042189624 0.22402968
0003e0 b7 48 f3 3c 31 ba 7a be ab 4a 45 3e 47 37 32 3d
       0.02969776 -0.24485089 0.19266765 0.043509748
0003f0 19 52 40 3c 1b de 65 bd 82 f8 98 bd 9e d3 70 3e
       0.011738324 -0.05612002 -0.07469274 0.23518226

conv2.bias f4 [16]
000000 fd ef a1 be ad d0 b9 3e 5c 5c 13 bf ab 8b cd 3e
       -0.3162841 0.3629202 -0.57562804 0.4014562
000010 e4 18 07 bf 11 9d 18 3f 8a b3 04 3e 48 c2 df 3c
       -0.52772355 0.59614664 0.12959114 0.02731432
000020 c1 f0 0a 3e 45 6c 7b 3f 5c 99 24 bf 43 81 03 bf
       0.13568403 0.9821208 -0.6429651 -0.5136911
000030 04 4d 5a be 6a f2 35 3e d8 f1 0c 3f ec e9 02 3d
       -0.21318442 0.17768255 0.55056524 0.031961367

fc1.weight f4 [120, 400]
000000 4f d0 96 3d 98 0b d3 3c aa e6 32 3d f6 63 39 bb
       0.073639505 0.025762364 0.04367701 -0.002828834
000010 93 5e 96 3c d2 1d f4 3c ca 83 d8 bc 3b bf a8 bc
       0.018355643 0.029799376 -0.02643003 -0.020598998
000020 98 92 c5 bc 63 9b 80 3d 22 99 d9 3c 95 a0 02 bc
       -0.024117753 0.06279638 0.026562277 -0.007972856
000030 d3 bd a6 bc ab aa d4 bb bd 48 fe bc a8 c3 6f bd
       -0.020354187 -0.006490072 -0.031040544 -0.0585362
000040 d2 0b f7 bc 2b 78 66 bd 84 9e ee bc 3a cf af bc
       -0.030157004 -0.056266945 -0.02912832 -0.021461118
000050 24 19 bb bb 7b 54 e2 bc b2 46 82 bb b3 2d a2 bb
       -0.005709784 -0.027628174 -0.0039757127 -0.0049492954
000060 48 a9 5a bc b1 f8 15 3d ba 0a 28 3c db 60 21 3c
       -0.013346024 0.036614124 0.010256464 0.009849752
000070 f3 33 bd bd 9a 4d e5 bc 36 24 5b 3d 56 fd 81 3d
       -0.09238424 -0.027991105 0.05350133 0.06347148
000080 f9 0e 13 bd 0d 9e ae bd 4c f2 c1 bc 9c 16 1a bd
       -0.03590295 -0.085262395 -0.023675106 -0.03761922
000090 6e a6 a0 bc 7f a3 82 3c 36 bd 3b bb ee 18 7a bd
       -0.01961061 0.015947102 -0.0028646714 -0.06105893
0000a0 6c ed a9 bc c7 17 81 bd 5a 65 e3 bb dc 3c a4 3b
       -0.020743094 -0.06303363 -0.0069395723 0.005012138
0000b0 8b 20 be bc 6f 79 28 bd 3f 9a a1 3c 64 2e 4c 3b
       -0.023208877 -0.041131433 0.01972687 0.003115558
0000c0 85 19 54 bd cc 6c b1 bd 34 9c 72 bd b2 18 07 3d
       -0.05178215 -0.086633295 -0.059231 0.032982536
0000d0 a0 74 02 3b 88 32 24 3d a1 d2 c5 bc b1 f3 10 3d
       0.001990594 0.040087253 -0.024148287 0.035388652
0000e0 c0 6b 64 3c 11 d4 07 bd 61 e9 8c b9 9e d9 ca bc
       0.013941705 -0.033161227 -0.00026876762 -0.024761971
0000f0 f6 e4 d8 3d 69 99 a5 3d c1 8f 93 3c a2 5a 6e bd
       0.10590546 0.08085901 0.018012883 -0.058191903
000100 5d a2 f2 3c 80 99 aa ba 3c 47 9e 3d c7 73 56 3d
       0.029618436 -0.0013015717 0.07728431 0.052356508
000110 e0 9a b7 bc b2 ac 27 3c 87 ad 09 3d 75 f3 b0 3d
       -0.022412717 0.010234045 0.033612754 0.08640186
000120 b8 bf 8c 3c d9 f2 dd 3c 70 b8 c3 3c 1c c0 3c 3d
       0.017181262 0.027093338 0.023891658 0.046081647
000130 da d2 65 bc ff 90 3d bd dc 76 ef bd 7d 7c 3a bd
       -0.014027322 -0.046280857 -0.116925925 -0.045528878
000140 1e 4f a5 3d df be 11 bd f7 15 47 3c 2b 15 2f bc
       0.08071731 -0.03558242 0.012151233 -0.010686199
000150 ff d3 71 bd aa 87 25 3d 39 e1 43 bd f3 4e 57 bc
       -0.059040066 0.040412582 -0.04782221 -0.013141382
000160 84 0f d2 3a f6 2b d0 bc ab 27 a0 3c 99 4c d6 ba
       0.0016026353 -0.025411587 0.019550165 -0.0016349732
000170 20 94 be 3c d9 6c e5 3c 1f 79 10 bd 4e 15 d2 bc
       0.02326399 0.028006004 -0.03527176 -0.025644924
000180 b5 eb e2 3c 9e 00 12 3c e6 46 39 3d a0 a1 ae bc
       0.027700284 0.00891128 0.04523363 -0.021317303
000190 e2 a2 2e bd 70 ea 2b 3c 00 0d fb 3c 78 e8 11 3d
       -0.042635806 0.010492906 0.030645847 0.03562209
0001a0 76 98 ea 3c 06 31 c4 bd 2e ed e8 bc f2 44 06 3c
       0.028637152 -0.09579663 -0.028433409 0.008195149
0001b0 35 ef 38 3c 13 b3 09 3d 9d 92 8b bd 77 66 9b 3c
       0.0112875 0.033618044 -0.06815074 0.018969757
0001c0 82 b8 0d bd aa 99 0a 3c 03 d7 83 3d ff 45 31 3c
       -0.03459979 0.008459488 0.064374946 0.010819911
0001d0 7e db 0f bd 8e 31 53 b7 06 fd cd 3c e0 d9 1e bd
       -0.035121433 -1.2588118e-05 0.025145065 -0.038782
0001e0 4d 4f 45 3d b6 4c b4 3d 6a f2 09 3c cc a1 8c 3d
       0.04817133 0.08803694 0.008419612 0.06866798
0001f0 e5 4a 0b 3b aa 53 40 bc ea d2 75 3d 44 5d 4c 3d
       0.0021254357 -0.011738697 0.060015596 0.049893633
000200 5b 2c 98 3d d2 8c 4a bd 98 b3 b9 bd d4 c8 0f 3d
       0.07430335 -0.049450703 -0.09067458 0.035103634
000210 3d 9c 0c 3d ed 5a 96 bc 4a a2 12 bd 39 d6 29 bc
       0.034328688 -0.018353904 -0.035799302 -0.010366016
000220 ea 3f 90 bc ed 97 ea bc c1 02 88 3a c3 fd 38 3c
       -0.017608602 -0.028636897 0.0010376797 0.01129097
000230 ec e1 61 b8 b6 aa a4 bc 91 57 34 3d 87 1f bb ba
       -5.3854586e-05 -0.020100933 0.044028822 -0.0014276364
000240 a3 fe 6c 3d 65 1f c4 3b 93 f9 27 bc 9f 6b a2 3c
       0.057860028 0.005985188 -0.010252374 0.019826708
000250 27 d9 91 3d f4 90 da 3c 1f 2b 8b 3c fd b7 78 3c
       0.07121497 0.026680447 0.016988335 0.015180585
000260 05 00 a5 bd a7 98 9b bd 54 fd 94 bd 9d 79 dd 3b
       -0.08056644 -0.075974755 -0.07274881 0.006758882
000270 2b 2e 12 bc b6 db 71 bd 77 14 96 3c 7d 49 36 bd
       -0.00892214 -0.059047423 0.018320305 -0.044503678
000280 1f df 40 bc a1 be 41 3d 44 80 f4 3c 3a 19 de bc
       -0.011771946 0.04730094 0.029846318 -0.027111638
000290 84 c8 95 3d d1 02 7b 3d e4 19 4c 3c d7 cb 53 bd
       0.07313636 0.061281983 0.012457345 -0.05170807
0002a0 e7 d0 41 3d 32 37 4f 3c 83 f8 a7 3c e8 6c 04 bc
       0.047318365 0.012647437 0.020504242 -0.008082606
0002b0 0e b5 a5 bc bb 4f 54 bd f4 b1 4f 3d 35 52 ac 3d
       -0.020227935 -0.05183385 0.05070682 0.08414117
0002c0 88 4a 53 3d 5a 11 d9 bc df e2 03 bd e5 24 d5 bd
       0.05158475 -0.026497532 -0.032198783 -0.10407428
0002d0 ed 05 8e 3c af 94 15 3d 4d d6 76 3d 9b be 03 3d
       0.01733681 0.03651875 0.060262967 0.032164197
0002e0 14 cb 61 bd 51 c8 4f 3d d2 e6 f3 3b 4d 0e ba bc
       -0.05512531 0.050728146 0.0074432874 -0.022711897
0002f0 05 d5 62 3d b9 5a da 3c f8 08 47 bd d7 b5 05 3d
       0.055378933 0.026654588 -0.048592538 0.03264412
000300 67 5b 43 bd a5 dd da bb 9f 8c af 3d 10 a1 b0 bd
       -0.04769459 -0.006679254 0.08571743 -0.0862447
000310 00 16 06 be 1d fe fb bc e1 d7 db bc 45 6b 61 3d
       -0.1309433 -0.03076082 -0.026836338 0.05503394
000320 d3 3c 16 bc 9c b1 78 3d 0c d8 37 bc a3 5c 4a 3d
       -0.009169775 0.060716256 -0.011220943 0.04940475
000330 17 25 66 bd 50 5b f6 bc c2 f8 33 bc ed 60 4c bb
       -0.056187715 -0.030072838 -0.010984601 -0.0031185702
000340 04 68 2e 3c 49 66 5e bd 51 27 c1 bc bc 78 51 3c
       0.010644916 -0.054296765 -0.023578318 0.012785133
000350 5e e1 c1 3c dc 06 05 bd ad 39 48 3d 31 2a 12 3d
       0.023667034 -0.032477245 0.04888313 0.035684768
000360 5d d0 9c 3d b3 f1 d6 3d 5b 4b 90 3d 92 4b 00 3d
       0.0765693 0.10495319 0.07045623 0.03132207
000370 82 c4 14 3e 7b 48 12 3e cd 87 89 3d 10 fe e4 3d
       0.14528087 0.14285462 0.06715355 0.11181271
000380 a1 cd c6 3d 31 fb 29 bd f9 27 83 3b b8 cc eb 3c
       0.09707189 -0.04149932 0.004002568 0.028784141
000390 d3 8e 4a 3d 60 fc ad 3c c8 90 69 bc 84 7e 38 3c
       0.049452614 0.021238506 -0.01425571 0.011260632
0003a0 04 9d 37 bd 0d 13 09 3c 7a b6 02 bc 78 4d 79 bc
       -0.044827476 0.0083663585 -0.007978076 -0.015216224
0003b0 7d ca 27 bd eb b5 0a 3d dc 9b 7a 3c eb ae 6a 3c
       -0.040964592 0.033864897 0.015295949 0.01432393
0003c0 3c 3c 90 3c 4e 1e 90 bb 94 71 95 bc 0b 5f 01 bd
       0.017606847 -0.004398144 -0.018242635 -0.03158478
0003d0 dc e7 68 bd 62 18 c0 3c 11 8b 9e 3d 80 9b a5 3c
       -0.056861743 0.023449127 0.077413686 0.02021575
0003e0 a5 69 86 3c bb a6 7e bc c2 72 48 3d b1 d0 80 3d
       0.016407797 -0.015542681 0.048937567 0.06289805
0003f0 6c df 2f bc 23 87 1b bd f4 63 9a 3c 50 69 fe ba
       -0.01073442 -0.037970673 0.01884649 -0.0019410048

fc1.bias f4 [120]
000000 35 ad 35 bd de 88 08 3e ae 4b d9 3c 7d 39 0f 3d
       -0.044354636 0.1333346 0.026525345 0.034966934
000010 59 53 0d bd 35 6b f7 bd 38 24 ba 3d 6e 3f 88 3b
       -0.034503315 -0.12080995 0.090889394 0.004157952
000020 3e 26 00 3e c3 60 11 3e 7a 04 20 bd d4 44 84 3c
       0.12514588 0.14197068 -0.03906677 0.016146101
000030 d2 ed bb bd 06 77 72 bc 99 d7 4f bd a6 0b 50 3d
       -0.0917622 -0.014798885 -0.05074272 0.05079236
000040 ab 03 35 bd fa d2 99 3d a2 e9 f5 bd 9d 8a c4 3d
       -0.04419295 0.07510944 -0.120074525 0.09596751
000050 b0 63 0e 3d 1a 00 42 bd 77 e5 be 3d ed fb c5 3c
       0.03476304 -0.047363378 0.09321111 0.02416798
000060 3e e2 06 bd 9f 91 c5 3c 03 d1 06 bd 91 34 86 3d
       -0.032930605 0.02411729 -0.032914173 0.06552995
000070 dc 79 aa 3c f8 1b 3b 3d f1 d5 df 3c be f9 7b bd
       0.02081006 0.04568097 0.027323695 -0.06151747
000080 15 e5 4a 3d 91 c4 4f 3d 3e c8 4f 3d 13 d3 0e 3b
       0.049534876 0.05072457 0.050728075 0.002179329
000090 c1 95 0b be 7f 24 1d bd 6d d7 88 bd b3 45 37 bd
       -0.13631345 -0.038364884 -0.06681714 -0.044744205
0000a0 f2 db 97 b8 b4 40 93 bd cb 66 80 bc 62 9a 87 bc
       -7.241209e-05 -0.071900755 -0.015674016 -0.016553108
0000b0 82 3c 75 3d 47 67 8d 3d a5 8b 33 3d d6 c4 12 3c
       0.059872158 0.06904464 0.043834347 0.008958062
0000c0 34 57 c6 bd 5c e7 4a bd 00 26 e4 bc 14 99 22 3c
       -0.096846014 -0.049537048 -0.027850151 0.009924192
0000d0 cb af d8 bc d5 df 33 bc a2 8d 9c bc 53 b1 ba 3d
       -0.026451012 -0.010978659 -0.019110505 0.09115853
0000e0 7a 67 14 bd 92 07 fb ba 1f 2e 25 3d 46 39 de bc
       -0.036231495 -0.0019152036 0.040327188 -0.02712692
0000f0 fd ad e7 3d e9 d9 5f 3c 1c 39 08 bd a9 99 c2 3d
       0.113124825 0.013662794 -0.03325759 0.095019646
000100 74 2c ee 3c 60 4f b9 3c 5e 2b c9 3d 51 b5 28 bd
       0.029073931 0.022620857 0.09822725 -0.04118854
000110 f4 a7 d1 3b ad b5 0d 3d bc da 52 3e 70 f8 ee bc
       0.0063981954 0.034597088 0.20591253 -0.029171199
000120 e8 ed 01 bd 1e d7 5a 3d d9 7a 3f bd 13 ee 38 bc
       -0.031721026 0.053427808 -0.046748016 -0.01128723
000130 a0 fa b2 3c c6 8a c7 bd 93 f3 08 3e e4 bc 36 3d
       0.021848023 -0.09743266 0.13374166 0.044613734
000140 45 cc 23 bc 08 3f 9d bd f0 6f cc 3c 46 6a 90 3d
       -0.009997432 -0.07678038 0.02495572 0.0705152
000150 dc 7b 86 3c 03 81 b4 3d c6 bd 30 bc 51 3d 05 bd
       0.016416483 0.088136695 -0.010787433 -0.03252918
000160 bf 8d 4f bd 0e fb 7f bd a7 cb e5 b9 89 42 16 be
       -0.05067229 -0.062495284 -0.00043830017 -0.14673819
000170 6c cf e6 3d 7c 7c a2 3e ca 2b 9a bc 3c d4 88 3c
       0.11270031 0.317356 -0.018819708 0.016702764
000180 57 8f 44 3e a3 e8 1f 3e e2 50 a1 bc 93 30 8d 3d
       0.19195305 0.15616088 -0.019691888 0.068940304
000190 49 20 77 bc 77 78 48 3e 76 6e 2b 3e bb b0 89 bc
       -0.015083381 0.19577204 0.16741356 -0.016807904
0001a0 0a da 55 3d b5 8a 4f bd 72 4c d4 3d f0 3a 16 bd
       0.05220989 -0.05066939 0.10366143 -0.0366773
0001b0 5f bd 59 bd 3b 03 28 bd 13 6c 18 3e af ae 41 3e
       -0.053159114 -0.041018706 0.14884977 0.18914293
0001c0 0b 3b 1b 3e 12 9e 11 bd 27 98 7e bc 35 9b 1b 3e
       0.15159242 -0.03555114 -0.015539206 0.15195926
0001d0 18 5c 57 3c 10 c1 83 3c d1 a3 fb bd 11 09 95 3d
       0.013144515 0.01608327 -0.12287105 0.0727712

fc2.weight f4 [84, 120]
000000 6f e7 a8 3d 9f 89 0f 3d 1b a4 5d 3d 86 19 ac 3d
       0.082472675 0.035043355 0.05411158 0.08403306
000010 c9 10 6a bd d3 d1 ff bd 4c f4 34 bd 56 c9 be 3c
       -0.057144914 -0.12491193 -0.044178292 0.023289364
000020 76 51 d7 3c 92 5e 8a 3d 17 d9 09 3e 4c 78 91 3c
       0.02628396 0.06756319 0.1346172 0.017757557
000030 c9 ac 40 be 37 39 3f bd b6 27 20 3d b5 79 91 3d
       -0.18815912 -0.046685424 0.03910037 0.07103292
000040 61 5d ca ba 88 f4 00 3e b7 f7 83 bc 74 d9 9f bd
       -0.0015439206 0.12593281 -0.01610933 -0.07805148
000050 f5 1a 00 3d 00 c8 0a 3e b9 d7 78 3c 8c 9a 80 3d
       0.03127571 0.13552856 0.015188151 0.062794775
000060 c5 e3 57 3d a8 13 0f bd 3f 52 4f bd d2 c9 fa bd
       0.052707452 -0.034930855 -0.050615545 -0.122455254
000070 42 a3 7a 3d 96 f1 94 bd 71 a6 c3 bd 1a ab 00 3c
       0.06119085 -0.07272641 -0.095532306 0.007853294
000080 0c 8e ac 3d 87 0a f8 ba 47 8b e0 3c de b9 eb bc
       0.08425531 -0.0018924036 0.027410163 -0.028775152
000090 7c 3a f8 3c ca a9 ec 3c 68 bc c2 3d 49 d0 a1 3d
       0.030301325 0.028889555 0.09508592 0.07901055
0000a0 ca e4 be bd de 0b e6 3d 3f d2 c6 bd 63 33 16 3d
       -0.09320982 0.11232732 -0.0970807 0.0366701
0000b0 c9 42 25 3d 8c 8b a8 3d e9 b8 38 3d c3 ce 11 3d
       0.040346894 0.082297415 0.04509822 0.035597574
0000c0 a8 fc 44 3d f6 2e ab bb 02 3e 9d bd b3 b6 5a bd
       0.048092514 -0.005224104 -0.07677843 -0.05339689
0000d0 6e 54 e1 bd f7 34 e6 3d b4 83 cb bd 00 01 f7 3c
       -0.11002432 0.11240571 -0.0993723 0.030151844
0000e0 9d ea 1c bd 83 b7 80 3d b1 72 17 bd b0 69 b5 bd
       -0.038309682 0.06285002 -0.036974613 -0.08858049
0000f0 7d 41 cc bd 91 b1 dc 3d 35 a4 9d bb ba 3a ec 3c
       -0.099734284 0.107760556 -0.004810835 0.028836597
000100 a9 67 8a 3d 5c 4b 33 3e 2a c3 e3 3d 60 6a 2f 3a
       0.06758053 0.17509216 0.11121209 0.00066915713
000110 2a 33 77 3c 99 f0 de 3c 94 7b 53 bc f0 52 a1 bc
       0.015087882 0.027214335 -0.012907881 -0.019692868
000120 c3 0e 73 3d e1 49 a5 3c 0a fe 17 3d cc 88 c0 3d
       0.05934025 0.02017683 0.037107505 0.09401092
000130 3d bb c0 bc 80 fd 55 3c 1e 1f a2 3d 46 25 ed bd
       -0.023526782 0.013060927 0.079160914 -0.11579375
000140 1b 46 35 3b e9 7c 05 bd 7c ac 32 be 0f 84 05 3d
       0.0027660194 -0.032589827 -0.1744861 0.032596644
000150 7d 99 3b bd 8b c8 a8 3c 4f 2a fb bd 7c a4 b6 3c
       -0.045800675 0.020603439 -0.12263929 0.02229523
000160 24 78 d2 3c bb 5f 40 bd 59 d6 0d bd 17 46 6f 3d
       0.025692053 -0.046966296 -0.034628246 0.058416452
000170 8a fb b2 bc d6 36 25 3e 93 19 b3 bd c5 63 1c be
       -0.021848459 0.161342 -0.08745112 -0.15272434
000180 82 92 8e bd 6d f4 69 bd 96 a5 9d 3d b2 80 80 3c
       -0.06961538 -0.05711787 0.07697599 0.015686367
000190 79 09 f8 3c 6c ef db 3d ea 66 ba 3d 2d 52 0b bd
       0.030277954 0.107390255 0.091016605 -0.034013916
0001a0 9f 34 0a be 9e ee a5 bd 8b e2 bd 3d a8 4c 1e bd
       -0.13496636 -0.08102153 0.09271725 -0.038647324
0001b0 8f e5 20 bc 6f 9b 10 bd 65 2f 24 bd 0a cc 81 bd
       -0.009820356 -0.035304483 -0.04008426 -0.063377455
0001c0 b7 79 a6 bc 77 cb f3 3d e8 30 8b 3b f4 2d 5d bd
       -0.02032171 0.11904042 0.0042477734 -0.053998902
0001d0 87 33 9a 3d fb 71 91 bd 1a af b4 3c 34 04 4a 3c
       0.07529359 -0.07101818 0.022056151 0.012330104
0001e0 1c b7 e6 3c ae 1c f9 3d e8 e7 b9 3d f9 15 aa 3d
       0.028163485 0.12163673 0.09077436 0.08304972
0001f0 29 37 a2 3d 3b c9 00 3d 4d be 7b bd d5 82 cd bc
       0.07920677 0.03144191 -0.06146078 -0.0250868
000200 31 63 fb bc 75 4c c9 bc b2 b6 47 bd 95 ed db bd
       -0.030686947 -0.02457259 -0.048758216 -0.107386746
000210 6e d2 b5 3a 8c d8 d0 3b 0a a4 e4 bc 3e c6 e9 bd
       0.0013871917 0.0063734706 -0.027910251 -0.11414765
000220 eb b8 b8 3c 74 38 98 3c 4d 66 a1 bd 62 10 a3 bd
       0.022549113 0.018581606 -0.078808405 -0.07962109
000230 23 3b 29 3d 41 e0 67 bd d0 bf 11 3d 27 ea ab 3d
       0.041316163 -0.05661035 0.035583317 0.083942704
000240 80 6c b5 bd ec cf 96 3c 91 08 2e bd ec 36 e6 3c
       -0.08858585 0.018409692 -0.04248864 0.02810236
000250 59 64 c0 3c bc 2a ec bd 7f 47 81 3c dd 1f 9d bc
       0.02348535 -0.115315884 0.015781162 -0.019180233
000260 10 c5 a9 bb 1e 07 e9 3c 96 13 7e 3d 74 39 2b bc
       -0.0051809624 0.028445777 0.062030397 -0.01045071
000270 ad 59 0b 3d f7 7a 0e bd 97 5d b1 bd 60 88 21 bc
       0.03402107 -0.034785237 -0.08660429 -0.0098591745
000280 3c 1b 48 bd 17 dd f4 bd a0 a6 31 bd 06 3d a3 3d
       -0.048854098 -0.11956232 -0.043371797 0.07970624
000290 a9 32 da bc 3e c8 2f 3d 3f 70 5e bd 23 4d e9 bc
       -0.026635485 0.042915575 -0.054306265 -0.028479164
0002a0 fe 5b 4d bd d5 cd ba bd 2d 10 05 3a a7 65 a9 bd
       -0.05013656 -0.091212906 0.0005075958 -0.08271342
0002b0 e9 bc dd bd 4b 36 26 bd 97 ed 14 bd bc 1f 29 bc
       -0.108270474 -0.04057912 -0.036359396 -0.0103225075
0002c0 1a eb df 3d 5b 31 c6 bc 7d 09 85 bd ab 9a 14 3e
       0.10933514 -0.024193456 -0.0649595 0.14512126
0002d0 d7 d6 ee 3d d5 04 9d bc c6 86 2c bd c9 86 5b bd
       0.11662071 -0.019167343 -0.042120717 -0.053595338
0002e0 80 c7 86 bd 62 ef f1 3c ab 7b 2f bd d9 f1 1e 3d
       -0.0658102 0.029533092 -0.04284255 0.038804863
0002f0 29 78 d2 bd fb 6e 3f 3c 61 c3 b7 bc 3c e6 ed bb
       -0.10276825 0.011684175 -0.022432031 -0.007260112
000300 ce 95 60 3b ca 89 e4 bc f1 6c cb bd 6d 56 b5 bc
       0.0034268978 -0.027897734 -0.09932888 -0.022135938
000310 12 53 90 bd 9c bc 78 bd 83 94 0d 3c 39 04 9d bd
       -0.070470944 -0.060726747 0.008641365 -0.07666821
000320 81 0d 8e bb e3 60 d5 3d 5d 41 c1 3d 97 14 8a 3d
       -0.004335106 0.1041887 0.09436295 0.067422085
000330 be c1 72 bd 1c 48 b4 3d d0 83 64 bd 39 22 32 bd
       -0.0592668 0.08802816 -0.05578977 -0.04348967
000340 64 37 00 3d 04 b5 17 bd 82 cf 65 3d c1 4e fe bc
       0.031302825 -0.037037864 0.056106098 -0.031043412
000350 a8 7d c5 bd 4c 4d 59 3c 48 d7 90 bc df d6 cd 3c
       -0.09643108 0.013263058 -0.01768078 0.025126873
000360 76 82 a1 3c f0 dc 03 bd c8 89 82 3d c8 32 35 bd
       0.019715529 -0.032193124 0.06373936 -0.044237882
000370 22 fa 61 3d 3c e2 44 3d ed 5c 67 bd 2c d2 05 3d
       0.055170186 0.048067316 -0.056485105 0.03267114
000380 54 71 26 bd 75 6d c9 3d 9a 76 83 3d ab de 80 3c
       -0.040635422 0.098353304 0.06419106 0.015731176
000390 f9 75 98 bd 55 de 49 bd db 9f 8b 3d 91 75 02 3c
       -0.074443765 -0.049284298 0.068175994 0.0079626
0003a0 b0 11 a2 3d 39 5a 18 bd 75 51 88 bd e7 5d a7 3d
       0.0791353 -0.037195418 -0.06656162 0.08172207
0003b0 dc 14 50 bd 94 8c 35 bd 5b f9 a1 3c ed 65 a3 3d
       -0.050801143 -0.04432352 0.019772222 0.07978425
0003c0 a9 0c 73 3d bf 55 05 be 31 df 0f bc ea be 12 bd
       0.059338246 -0.13020991 -0.00878124 -0.0358266
0003d0 34 cd 66 3d 1a 57 00 bd ec c7 0c 3d 8e 93 60 3d
       0.05634804 -0.031333067 0.034370348 0.05482822
0003e0 41 2b 99 3d de 06 9a bc 01 23 b4 bb 77 65 9a 3c
       0.07478953 -0.018802103 -0.005497337 0.01884721
0003f0 01 1b e7 bb f4 27 03 3d ef f2 f5 3d 6a 15 10 be
       -0.0070527797 0.032020524 0.120092265 -0.14070669

fc2.bias f4 [84]
000000 0d ed d5 3c ad fd 0f 3e a0 00 e8 bd dd 53 87 bd
       0.026114011 0.14061613 -0.11328244 -0.066077925
000010 df 32 6c bc 5e a0 20 3e 9f af 90 bd 94 70 cb 3e
       -0.0144164255 0.15686175 -0.07064747 0.39734328
000020 7f 6a db 3e 98 f6 3c 3e 8a 79 d4 3e 21 18 c8 3d
       0.42854688 0.18453443 0.41498977 0.09770227
000030 e9 60 61 3e ae 18 6a bd f2 60 c4 3d c7 4d d9 bc
       0.22009625 -0.057152443 0.09588803 -0.026526345
000040 97 0d bb 3e 4a c9 0c 3e ca 05 dd bc 0f bc 07 3d
       0.36533806 0.1374866 -0.0269803 0.03313833
000050 7e d3 1b bc 7a a2 b7 bc 36 15 94 3e 9d ea 94 bc
       -0.009510873 -0.022416342 0.28922433 -0.018178279
000060 3a cc 39 3e 43 ce b7 bd b4 04 2d bb 0d 6f 34 3d
       0.18144313 -0.08974888 -0.0026400508 0.04405122
000070 58 e4 b6 3c 60 b7 92 bd 52 16 97 bd dc 6b a1 bd
       0.02232568 -0.07163882 -0.07377304 -0.07881901
000080 23 12 90 bc 1b 2a 84 bb 76 76 14 3d 01 98 88 3b
       -0.017586773 -0.0040333397 0.036245786 0.004168511
000090 ec 09 87 bd d8 17 69 3e 65 3f ab bb 1a 11 25 3d
       -0.06593689 0.22763002 -0.005226063 0.040299512
0000a0 6d 5e ed bd fe 75 91 3d 89 0a 25 3d 7a 03 92 3c
       -0.11590276 0.07102583 0.04029325 0.017823923
0000b0 a4 2a 3f 3e c9 2c e2 bc 7e 46 d9 bd 14 aa 44 bc
       0.1866861 -0.027609246 -0.106091484 -0.01200344
0000c0 c1 24 7c 3e 61 eb f8 3c 80 dd 41 bd 30 e3 35 3d
       0.24623396 0.030385675 -0.04733038 0.044406116
0000d0 d6 10 00 3e 39 77 54 3d c4 83 86 bd 4b c8 95 3c
       0.12506422 0.051871512 -0.06568101 0.018283984
0000e0 5f 9e de 3d 0c 34 57 3e d2 0b 1e bd 4d 92 87 bd
       0.10870051 0.21015948 -0.03858549 -0.066197015
0000f0 c2 b3 a3 3d f2 a0 0e 3e 24 d3 5f 3d a0 e2 a9 3d
       0.079932705 0.13928583 0.05464472 0.082951784
000100 87 16 59 3e 04 df 8a 3e ab e9 5c bd 0b bd 8e bc
       0.212 0.27123272 -0.05393378 -0.017424127
000110 16 b8 ec bc 6c 45 9f bd 8d 35 c1 bc 73 d1 12 3d
       -0.028896373 -0.07776913 -0.023585105 0.035844278
000120 df cb a3 bc cc 62 63 3d 29 68 c6 bd 10 db a0 bd
       -0.019994674 0.055514142 -0.09687836 -0.07854283
000130 72 94 0b be 16 85 91 3b ad 02 25 ba ac 6e 60 bc
       -0.13630846 0.004440914 -0.0006294649 -0.013698261
000140 e6 5c 3d bd 14 ce 9c bd d8 d7 99 3d 97 47 b9 3c
       -0.046231173 -0.07656494 0.07511872 0.022617145

fc3.weight f4 [10, 84]
000000 2f 87 19 3e ee 4a b3 bd 7f 42 94 3d c4 9c bd 3d
       0.14992975 -0.08754526 0.072392456 0.09258416
000010 e2 02 7f bd 36 17 56 3e c6 fa c6 3d da a6 75 be
       -0.06225861 0.20907292 0.097158 -0.2398943
000020 01 de 2d 3c 76 5d 85 3e cb f6 8f be 26 20 0c bd
       0.010612012 0.26047868 -0.28117976 -0.034210347
000030 f2 53 8d bd 97 81 52 3e 42 b9 84 bd e7 8c 64 3d
       -0.06900777 0.20557247 -0.064806476 0.055798437
000040 cd 7b 87 be 08 ab b4 3d a5 4f 9a 3d 00 13 7f 3d
       -0.2646164 0.08821684 0.07534722 0.06227398
000050 47 bf e4 3c 3d f8 73 3e 8f c9 85 be d1 c8 b5 bd
       0.02792324 0.23825164 -0.2613034 -0.08876193
000060 f4 8c 2e be d5 a8 12 3d 3f 6c 45 bd 2a 8e 2b 3e
       -0.17045957 0.035805542 -0.048198935 0.1675345
000070 ee 7a 8b bd 84 22 8e 3d 86 f3 80 3d 22 7a aa 3d
       -0.06810556 0.06940177 0.062964484 0.08324076
000080 77 80 30 bc 1f 8e e1 bd 0f 96 79 bd 91 77 e8 3d
       -0.010772816 -0.110134356 -0.060934123 0.113509305
000090 30 f0 74 3d ad 0d 43 3b 6e f5 08 be 47 87 e5 bd
       0.059799373 0.002976279 -0.13374874 -0.11207443
0000a0 2c d6 01 be d3 fd 5b 3e 8e 29 00 be ad bf b2 bc
       -0.12679356 0.21483545 -0.12515852 -0.021819914
0000b0 41 25 61 3b 1e f9 4e 3b 70 2d 30 3e 49 66 64 3e
       0.003435448 0.003158159 0.17204833 0.22304644
0000c0 2e 24 5f 3e be 1e 01 3d aa e6 ce bd 0d 1e cd 3c
       0.21791145 0.03152346 -0.101025894 0.025038743
0000d0 f0 e2 98 3d 44 5d ce bb c1 d0 cb 3d 49 e6 b1 3d
       0.0746516 -0.006297739 0.09951926 0.086865015
0000e0 e7 66 eb 3c da eb 9e bd 53 59 09 3e 41 44 80 3c
       0.028735591 -0.07759829 0.1341298 0.015657546
0000f0 c0 fc 99 3c be 8e 7c 3e 78 58 a1 bd 6f a5 a5 bd
       0.018797278 0.24663827 -0.07878202 -0.080881946
000100 1f 8c 0f be 56 c1 e0 bd 55 d5 f3 bd 6f e7 02 3e
       -0.14018296 -0.10974376 -0.11905924 0.12783597
000110 d4 01 8b bd 42 00 01 3e fb 12 11 bd b3 59 56 3e
       -0.06787458 0.12597755 -0.03541849 0.20932655
000120 82 5e bb 3d 73 43 35 be 93 da 45 bd e3 9c 6e 3e
       0.09148885 -0.17701511 -0.04830415 0.23302035
000130 2b da 5f bc e1 5a cf 3c 5f d4 7c 3d 35 16 a8 3d
       -0.013662855 0.02531189 0.06172597 0.08207361
000140 68 51 9a bd 2f 02 91 3d 35 1b 0c 3c 68 4c 10 be
       -0.07535058 0.070804946 0.008551409 -0.14091647
000150 ac d2 d3 bd 7c dc b2 3d d0 84 80 3e 6b 5e 00 bc
       -0.10342917 0.0873346 0.25101328 -0.007835011
000160 a9 2d 61 bd 67 3f 06 bc 80 16 41 3e 5c 47 20 be
       -0.054975186 -0.008193827 0.1885624 -0.15652221
000170 19 7f ab be 6e 5d 4a 3c 7e 49 f8 be 84 71 66 be
       -0.33495405 0.012351377 -0.4849357 -0.2250424
000180 5a d7 1a 3e 4a 62 38 be 07 9d eb bd 03 ee c6 3d
       0.15121213 -0.18006244 -0.1150456 0.09713366
000190 81 a8 e3 bd 8a b8 86 bd 57 f3 89 3d 87 a7 db bc
       -0.11116124 -0.06578167 0.067358665 -0.026813282
0001a0 02 8f 08 3d 3f 31 f0 bd ee 13 2a bd 4f e3 55 3d
       0.033339508 -0.11728143 -0.041522913 0.05221873
0001b0 f8 ca 07 3e 12 d5 88 bd 68 cd 71 3d 21 13 03 3d
       0.1326102 -0.06681265 0.05903378 0.032000665
0001c0 28 29 88 3c 50 88 2c be d4 d3 27 3d dc 7f 1f 3d
       0.016621187 -0.16848874 0.0409735 0.038940296
0001d0 d9 fd 33 bd ee 84 a5 3d a8 9a a8 3c f4 d2 02 bd
       -0.04394326 0.08081995 0.020581558 -0.03193946
0001e0 2c 54 01 3e 6d f5 01 be 74 3e dc 3d 50 b6 6a 3e
       0.12629765 -0.12691279 0.107540995 0.22921109
0001f0 c9 c3 8d 3e 74 05 49 3e de 38 85 bd 4c ac 82 bd
       0.27688435 0.19630986 -0.06504987 -0.06380519
000200 62 36 d8 bd 53 f2 b8 bb a9 84 1f 3e 27 ab 60 bd
       -0.10557248 -0.0056441217 0.1557795 -0.054850724
000210 c4 f7 0f bd cf 22 ac 3d 79 33 1f 3c 4a 0a da 3b
       -0.035148397 0.08405077 0.009716862 0.0066540586
000220 6f fd 72 be f1 82 04 3d b0 86 a6 3d e1 f0 20 3e
       -0.2372949 0.032351438 0.08131158 0.15716888
000230 c1 12 eb 3e cc a2 f0 bc f7 52 26 be 0f 15 c8 3d
       0.45912746 -0.029374503 -0.16242586 0.097696416
000240 59 cc bd bd c0 6e a2 bd 30 d2 8f bd b2 1f bf bd
       -0.09267492 -0.0793128 -0.07022512 -0.09332217
000250 91 b6 dd bd 8f d9 b3 bd 37 aa c3 3d 74 df 3d bd
       -0.108258374 -0.087817304 0.0955395 -0.04635568
000260 d8 e0 87 3d 4a 4b 6c 3d 14 3d 40 bd e5 e6 f5 bd
       0.066346824 0.05768899 -0.04693325 -0.1200693
000270 ed 56 8c bd 69 2b 93 be e9 74 1d 3d 0c bb e2 3e
       -0.06852517 -0.28744057 0.038441572 0.4428333
000280 78 94 ae 3d 7c 44 a5 3d 03 0c 71 3d 0a 9a 14 3b
       0.08524412 0.08069703 0.058849346 0.0022674822
000290 65 31 af bd 77 a4 8b bd 8f 56 10 3d 94 e9 9a bd
       -0.08554343 -0.068184786 0.0352388 -0.07564083
0002a0 02 21 4e 3e 1c e5 a3 bd ad 23 20 3e 4d ff 53 3d
       0.20129779 -0.080026835 0.15638609 0.051757146
0002b0 d8 e6 32 bd 73 3a 0e 3e 2b e5 0d be 47 21 49 3d
       -0.04367718 0.13889484 -0.13856952 0.049104
0002c0 98 8e 37 3e 0b 11 c4 3c 31 1b a8 3e 34 0c 2b 3d
       0.17925489 0.023933908 0.32833245 0.041759685
0002d0 2f 65 2f 3e 59 8f a2 3e 27 2e f6 bd a0 d6 ee 3d
       0.17128442 0.3174999 -0.120205216 0.1166203
0002e0 4b bf 15 be 11 8e 1d be 35 39 9a bd ad 26 b8 bc
       -0.14623754 -0.15386225 -0.075304426 -0.02247938
0002f0 20 e2 01 3e 79 60 66 3e bf 39 dc 3d 70 96 1c 3c
       0.12683916 0.22497739 0.10753202 0.0095573515
000300 c7 2c 80 3d 8b 78 67 3d de 44 57 3c 63 86 7c be
       0.062585406 0.056511443 0.013138978 -0.2466064
000310 b2 0d 8f 3d 11 10 75 be 69 34 20 bd d6 d9 02 be
       0.06985034 -0.2393191 -0.039112482 -0.1277841
000320 3b b1 54 bc e9 3f d5 bd 00 b3 0e 3e 96 c5 82 bd
       -0.012981708 -0.104125805 0.1393547 -0.06385343
000330 1d 17 09 bc 0d 85 bc 3d f0 68 67 bb 55 37 c2 bd
       -0.008367327 0.09205065 -0.003531035 -0.0948321
000340 2f e3 ad 3d 8a 1d d9 3d fa 29 cc 39 60 8d c7 bd
       0.084905975 0.10601337 0.00038941187 -0.09743762
000350 e7 52 a2 3e 31 cd c0 bd 46 f0 69 3e 3a 26 e9 3d
       0.31703874 -0.09414137 0.22845563 0.11384244
000360 8e 29 0d be ac e2 ad bd 45 48 bc bd 32 74 2d 3c
       -0.13785383 -0.084905 -0.09193472 0.010586785
000370 aa eb 2a 3e 55 22 7c 3d 7b ec 70 3d b3 9b 16 bd
       0.16691461 0.06155618 0.058819275 -0.03676958
000380 0e b1 6b be 9b 48 98 3d 19 e7 80 3d 17 4d 8e 3d
       -0.2301676 0.074357234 0.062940784 0.069482975
000390 b7 46 69 3e f9 c6 0a 3b 94 c0 1a be 5c ba a4 bb
       0.22780882 0.0021175726 -0.15112525 -0.0050270986
0003a0 b0 dd ee 3d 68 08 7e 3c 99 71 6b 3c fa 62 15 3e
       0.11663377 0.015504934 0.0143703455 0.14588538
0003b0 d7 b1 3d be e6 a4 f9 bd 4e fd 00 3e 4d 74 dc bd
       -0.18524872 -0.12189655 0.12596628 -0.1076437
0003c0 ee cc 9f bd 2f ac 3f 3e 9c 59 a6 bd f9 f1 f8 bd
       -0.07802759 0.18718027 -0.081225604 -0.121555276
0003d0 23 31 d6 3c 1e 0b fc bd fd cd eb bc 3e 61 e8 bd
       0.026146477 -0.12306808 -0.028784746 -0.113466725
0003e0 0c 41 db bd a7 36 85 3d f8 53 38 3e 96 94 3b 3d
       -0.10705766 0.06504565 0.18000782 0.045796
0003f0 b6 c5 0b bd c5 8d 95 ba 98 01 b8 3d 31 dc 5a b7
       -0.0341241 -0.0011410048 0.08984679 -1.304508e-05

fc3.bias f4 [10]
000000 97 6b d2 be 29 19 03 bf b1 c8 34 3d 3b 0b 43 3e
       -0.4109771 -0.51210266 0.044136707 0.19047253
000010 4a f6 37 3f a2 d3 01 be c0 65 e3 3e 8b 30 df bd
       0.7186018 -0.12678388 0.44413567 -0.10897931
000020 8e 87 fb 3d 52 fe 1e be
       0.122817144 -0.15526703
